2D_examples/sample_8gaussians/best_IDFF_model.pt (torch, 535904 bytes, 8 tensors)

net.0.weight f4 [256, 3]
00000000: 9df2 bebc 587c 2abd 20d7 8cbe d880 8fbc
00000010: 3f8f 02bc 0953 e9be 0a77 c43e 88b8 213e
00000020: d157 23bd 0652 87bd 1572 1cbe 9aa6 49be
00000030: 200e 46be b185 de3d 4f09 92be a358 963e
00000040: 62bf 87be 82e1 e03e 684a f23d b313 8e3e
00000050: cb33 433e dfb7 9f3d cc35 9fbd 568c 283e
00000060: c6ce 16be 6c34 17be cf34 063f 06ee 10be
00000070: 0baf b33d a1b4 6ebe 55b0 54bd 3255 1cbd
00000080: fa2b adbe 6310 dd3c f917 d4ba a16f 17bd
00000090: 322f 15be bee8 2c3c 8b1d 07bf 4120 9fbd
000000a0: 8caa bd3d 61f6 f03e 9c18 27be 239f ce3e
000000b0: d656 a03e 83c8 a6bc 0a1d 583e 2d77 c73e
000000c0: 2fcd 903d 048c 9a3d 872d 0c3f 1c85 92be
000000d0: dd07 953e 0224 d4be dbf2 2bbd cb12 51be
000000e0: 65b5 98be 6101 4e3d 1e40 f23d 336b cf3d
000000f0: bb85 08be 4cb7 a53e 72a2 d83d 9210 8abe
00000100: 1dc9 02be ed20 02bf c30c 233e f4df 8abd
00000110: a382 7dbd 09b0 e3bd db65 833c f01c f4be
00000120: 8bfc 0abe 3906 a8be ca20 cb3e 8f0d c73e
00000130: 41d6 833e 720a efbe 6389 ad3e 3206 6c3d
00000140: 4791 01bf 6349 bb3d ffad 9b3d 34e4 283e
00000150: 7b92 dc3d 1f11 e8bc c488 e8be b96c 863e
00000160: 4af4 923e f27e 8dbe 3d95 efbc 2398 9cbd
00000170: c809 ccbd 0e53 ddbd e22e 343e b1bc 00bf
00000180: b76e 78bc 3f82 a83e f604 d2be b7c2 213e
00000190: 58a6 c13e 6df6 993d 7187 97be 25a9 94be
000001a0: 58f0 85be 8a29 393e be99 36bd 9086 ae3e
000001b0: 3f76 d2bd 36dd 793e 935c 7fbe 5518 6e3e
000001c0: ffda b8bd d0f2 1d3e 8d3e 083e 1231 ab3e
000001d0: d580 09bf ae5c eb3d e406 8a3e 2d95 7d3e
000001e0: 294f af3e d59e 07be b65d 793d 52ce 17bd
000001f0: d137 c9bd 1be9 9dbe 787c 883e 5a54 07be
00000200: ca7d 843e ab01 bf3d d731 6dbe 0a1d 3dbd
00000210: 2677 423d 0178 89be 875b dbbe 540a 783a
00000220: 7327 c43a 2566 05bc 464e a5bd b1b4 33bc
00000230: acb2 f43e 457f 0cbb d103 fa3b 85d5 0dbe
00000240: f04b 45be 283d 623e d934 103f f551 4bbe
00000250: 5082 45be 5f72 eabc 4bfd 8339 46b4 9d3d
00000260: f255 07be dac4 0bbd 6819 c2be 2019 fabe
00000270: 1b68 823e bf94 d73d 90d2 e03e d3f2 9a3d
00000280: 9561 62be 108d 09bf 14dd 71be 6eb9 c43d
00000290: 484d 023e 187f d43d 9b08 09bd efaf 233e
000002a0: 965d 17bd 5476 7ebd 044f 673e 7724 923c
000002b0: 78e8 f5bb 9780 263e e19a e73d a09c 8cbe
000002c0: e00d fc3e 03a1 133e 2ad8 aebd 98fb 013f
000002d0: 31ee 053d c53d a9bd afb2 083e 5ee8 9d3e
000002e0: 8d59 783d 6b37 a5be f324 de3d 30f4 15be
000002f0: d603 ff3e f2db 6fbe 00c2 5c3e a383 073f
00000300: 1d9f 8e3e b339 8cbe 6694 d4be 3b25 3dbe
00000310: 0e83 85be 5446 01be fa7f 6c3b 9c4e 01bc
00000320: a2fa 8bbe 6baa 28be 01f6 593e 300f d1be
00000330: 363e 87be 4627 20be e006 c63e 601b 19be
00000340: 33ac 5dbd 2ced 8ebe 6585 9d3e f635 a53e
00000350: 32ec ca3e 0985 9d3d 3cfc f3bd 03a4 f0be
00000360: adae a23d 8a9c bbbd c6e3 07be d036 7fbe
00000370: e03a 5c3b 62b9 76be 7d7a a03d 4084 b43e
00000380: 8914 d8be ffbd 34be 822c a13e 6a98 55be
00000390: 0615 2dbe 1797 d23e 6ea7 b93d 6c70 023e
000003a0: c6ba a0be 5715 b43d a36e 92be 435a 863e
000003b0: 1746 9abe 8066 8fb9 0b7d 013b 6000 de3b
000003c0: 3532 1539 7520 e839 d04e 003b 3077 81be
000003d0: 4638 d53b 67db c13e ca76 8ebd b3a2 4c3d
000003e0: d082 57be 66f5 843e 6896 dcbd 5177 cdbe
000003f0: 0c61 103e e800 b43e 80d9 72be 139a 2fbe
-0.023309046 -0.04162249 -0.27507877 -0.017517492 -0.007968723 -0.45571163 0.3837207 0.1579305
-0.03987867 -0.066074416 -0.15277894 -0.1969246 -0.19341326 0.10865343 -0.28522727 0.293645
-0.265132 0.4392205 0.11830598 0.27749404 0.19062726 0.077987425 -0.07773933 0.16459784
-0.14727315 -0.14766091 0.5242433 -0.14153299 0.08773621 -0.23311092 -0.051925976 -0.038167186
-0.33822614 0.026985353 -0.0016181461 -0.036971692 -0.14568785 0.010553537 -0.52779454 -0.07769824
0.09261045 0.47062972 -0.16317981 0.40355787 0.3131625 -0.020359283 0.21104828 0.3895811
0.07070386 0.07546237 0.5475697 -0.2861718 0.29107562 -0.41433722 -0.041979652 -0.20417325
-0.29825893 0.050294284 0.11828636 0.101278685 -0.13332264 0.32366407 0.10577859 -0.26965767
-0.12772031 -0.5083149 0.15922837 -0.06780997 -0.061892163 -0.111175604 0.01603978 -0.47678328
-0.135729 -0.32817248 0.39673454 0.38877532 0.257494 -0.46687657 0.3389388 0.057623096
-0.506123 0.09144857 0.076015465 0.16493303 0.107701264 -0.028328476 -0.45416844 0.26254824
0.28702003 -0.27635914 -0.029245967 -0.07646205 -0.09962803 -0.10806857 0.1759601 -0.5028792
-0.015163115 0.3291187 -0.4101941 0.15796934 0.37822223 0.07517705 -0.2959552 -0.29035297
-0.2615993 0.18082252 -0.044580214 0.34087038 -0.1027646 0.24400792 -0.24937658 0.2325147
-0.09026145 0.15424657 0.13305111 0.33435875 -0.5371221 0.114922866 0.26958382 0.24763937
0.34240082 -0.13244183 0.060880385 -0.037061997 -0.09825099 -0.30841908 0.26657462 -0.13215771
0.2587722 0.0932649 -0.23163544 -0.046170272 0.04747691 -0.26849368 -0.42843267 0.0009461988
0.001496537 -0.008142029 -0.0807157 -0.010968373 0.47792566 -0.0021438163 0.0076298495 -0.13850982
-0.19267249 0.22093642 0.5633064 -0.19855483 -0.19287992 -0.02861899 0.00025174985 0.077004
-0.1321638 -0.03412328 -0.37910008 -0.48847294 0.2547005 0.10526418 0.43910646 0.07565846
-0.22107537 -0.5373087 -0.23619491 0.096056804 0.12724793 0.10375804 -0.033455472 0.15985082
-0.036954485 -0.062124565 0.22588736 0.017839653 -0.007504519 0.1625999 0.11308838 -0.27463245
0.49229336 0.1441689 -0.08537324 0.50774527 0.03269786 -0.08263735 0.13349412 0.30841345
0.060632277 -0.32268843 0.10846891 -0.14643931 0.49807614 -0.23423746 0.2155838 0.52935237
0.2785577 -0.2738777 -0.4151947 -0.18471234 -0.2607655 -0.12624484 0.0036087022 -0.007892277
-0.27339655 -0.1647126 0.2128525 -0.408319 -0.2641465 -0.15639982 0.3867712 -0.14951849
-0.0541193 -0.27915323 0.30765834 0.3226773 0.39633328 0.0769139 -0.11913344 -0.4700013
0.07943473 -0.09160717 -0.13270482 -0.24923253 0.0033604428 -0.24094155 0.07835863 0.3525715
-0.42203167 -0.17650603 0.3147927 -0.20858923 -0.16902551 0.41130897 0.09065138 0.12738198
-0.31392497 0.08793133 -0.28600034 0.2624074 -0.301316 -0.00027351454 0.001975837 0.006774947
0.00014228451 0.0004427467 0.0019578226 -0.25286245 0.0065069525 0.37862703 -0.06956251 0.04995985
-0.21045995 0.25968474 -0.10770875 -0.40130094 0.1409952 0.3515694 -0.23715782 -0.17148618

net.0.bias f4 [256]
00000000: c84c 553b b801 be3e 0412 f7bd 21a9 263b
00000010: f865 463e 303d 4fbd 67cb 51be 8a90 1d3e
00000020: 092c 11be 8db6 3bbd 54af c5bd ab2a 403e
00000030: 4121 c93e 477b 5bbd 084f a0be 14a4 f5be
00000040: 5dce 20be 8da1 a8be add5 61bc 332b ee3c
00000050: 7064 27be 7c27 6cbe 7de4 a5bc fb07 5cbe
00000060: 6f01 aabe 066e 15be cc40 bc3e ef43 d6bd
00000070: 2f0f 203e 2432 e03c 5466 703b 6853 88be
00000080: 60c0 8abd 06fc 3cbe 5e76 d3be c779 dfbc
00000090: 36a1 893e f080 043d 23d0 3c3e f277 71be
000000a0: f37c 173e 4f34 133e e1f1 c53d f019 84bd
000000b0: b669 f5ba 48cb 213c 8a6c 69be 7fa7 dc3d
000000c0: 498a 0fbe 0763 763e 1f92 16bd 8fb6 19be
000000d0: 6725 aabe 684b d7bd b80e 1cbe b4b5 cbbc
000000e0: a08c 3bbd 35a7 6bbd 10f4 c8be 1aea 393e
000000f0: cb6e dcbd b255 d1bd dbc7 44be 3f4f abbd
00000100: 3fb4 903b c4b5 ca3c 6349 463e 4421 313e
00000110: e77a e8bd 1a2e 7a3e 2108 a03d e1dc 8fbe
00000120: 5980 a23e 38be 453d 3881 ba3c 2537 2ebe
00000130: 0a28 3abe d6dd e43d e489 dc3d 5b3d 3cbb
00000140: c53c 073b f57e 6c3e bfd1 d63c 2290 023e
00000150: 126b 03bb 37a6 8d3e 488b e4bc 9179 143d
00000160: 9ea7 3e3e 1aeb cebc d2c2 353e 9dda b53d
00000170: 0851 9bbe 3bb6 703c a9f0 a6bc dc65 2bbe
00000180: f4ae 0ebd 3b24 6d3e e317 99bc 584a 84be
00000190: bfa5 873e 3e1f 973d ae9e 1cbd fdd2 1dbd
000001a0: 5e90 1d3e cdf8 33be 48da 46be cc25 80bb
000001b0: 2b53 6abe d618 a73d 52ed 793e 1473 81bd
000001c0: 316c 003c c139 1a3e 177c 853e 9c64 5e3e
000001d0: 6da9 9ebd e02c 8b3e 0a62 3a3e 8464 afbe
000001e0: 0ea4 9ebe 1827 81be 8123 063e 0d51 ab3b
000001f0: a3b3 ce3e ca52 c73e dcf5 fa3d b6e3 173b
00000200: 8da8 233e 9734 583e 8b5c 1cbe df4f 303e
00000210: 8a28 533d 66c8 d4bd 555a 99be 11a6 4b3e
00000220: 3d70 ac3e 567c 043e 00c7 18be 4d77 0d3c
00000230: dfdb 8abc 8e44 093e 5655 b2bd 155a d63d
00000240: abb2 c0bd 9c72 babe 3363 523d 47d0 e83d
00000250: 62a2 27be cf7a a7be 2d60 c63d 2833 a6be
00000260: 40d1 123e 64ba 99be f638 4f3e 64ac 02be
00000270: d64c 903e f6cb 443e 1a21 c03c 416d c43d
00000280: 3799 64be 2a3a 493e 0260 10be 8f8d 803e
00000290: 23e1 37bd 2daf e7be 0ab9 a3be 7735 91be
000002a0: 14b3 3e3e ead7 84be f82a 55be 3ff4 2dbd
000002b0: 9df5 b5bd 68ae c73c 89ae 81bd 9db6 5dbe
000002c0: ce61 313e 2c98 213e ece4 a33d 0de5 2b3e
000002d0: a6a1 51be 4066 2e3e ae34 babe 2b77 033c
000002e0: a651 91be fe93 29bd bd12 f4bb 9cff 0ebe
000002f0: feec f7bd 0d53 ff3c 4ede d9bb 780a 66be
00000300: 2940 b9bd 709a a13e 11ad bb3c d856 0bbe
00000310: 985d 08be 4c72 1ebe 87c0 5a3e 1045 6d3e
00000320: 8b01 bbbe d0e8 5c3d 3dc4 1c3e 9d2d 8b3e
00000330: b3b9 793e 0c78 16bd 147e a83c bc1e b3bd
00000340: 369d 27be caa6 d3be 0397 9ebe 41aa a63d
00000350: 2e1a afbe 9d91 b7bc 08f6 c03e 67be 3ebd
00000360: 3004 263e b20c fabd 59f5 d73d 21aa d53e
00000370: 2f32 96be a165 683c ef3a afbd 2618 21bb
00000380: 0ace 19be ecd1 41bd d5f2 5cbe 101d a83e
00000390: 6575 25be c027 bebe 06e8 0e3e c442 30be
000003a0: 5e90 0f3e 611b e43d 3e09 013e c212 5bbe
000003b0: 0c38 a1be 56b9 9e3c 643b 3c3e c7dd 233e
000003c0: 0d8c 7c3e 9daf b3be 047e b9bd 3ad4 0d3e
000003d0: 38fe 6fbc e32c d8be a151 b6bd 5231 8fbe
000003e0: 1369 813d 8511 97be c337 6abe 9d60 46be
000003f0: 0d52 60bd ee67 293d 487e 2ebc 6e6a b43e
0.0032546986 0.37110686 -0.12063983 0.0025430399 0.19374835 -0.050595462 -0.20487748 0.15387169
-0.14176954 -0.04582839 -0.09652582 0.18766277 0.39283183 -0.053584363 -0.31310296 -0.47976744
-0.15703721 -0.32935753 -0.013783854 0.029073333 -0.16346908 -0.23061937 -0.020250553 -0.2148742
-0.3320422 -0.14592752 0.36768186 -0.10462176 0.15630792 0.027367659 0.0036682086 -0.26626134
-0.06774974 -0.18455514 -0.41301244 -0.027279748 0.26880807 0.032349527 0.18438773 -0.23580912
0.14793758 0.14375423 0.09665275 -0.0645026 -0.0018723521 0.009875126 -0.2279531 0.10774135
-0.14017595 0.24061213 -0.036760446 -0.15011047 -0.3323166 -0.105124295 -0.1523999 -0.024866916
-0.045788407 -0.057532508 -0.39248705 0.18155709 -0.107633196 -0.10221423 -0.19216864 -0.08364724
0.0044160183 0.024744876 0.19363932 0.17297846 -0.11351567 0.24431649 0.078140505 -0.28098205
0.31738546 0.04827711 0.022766694 -0.17013223 -0.18179336 0.11175124 0.10768488 -0.0028723094
0.0020635587 0.23095305 0.026223062 0.12750295 -0.0020052833 0.27665874 -0.027898446 0.036248747
0.18618628 -0.02525859 0.177501 0.08879588 -0.3033526 0.014691885 -0.020378428 -0.16738075
-0.034834817 0.23158352 -0.018688148 -0.2583797 0.26493642 0.07379006 -0.038237266 -0.038531292
0.15387103 -0.17575379 -0.19419205 -0.0039107557 -0.22883289 0.08159034 0.24406937 -0.063207775
0.007838295 0.15061094 0.26071236 0.21718067 -0.07747159 0.27182674 0.18201461 -0.34256375
-0.3098454 -0.2522514 0.13099481 0.005228168 0.40371427 0.3893035 0.12253925 0.0023176498
0.15982266 0.21113811 -0.15269677 0.17217968 0.051552333 -0.103897855 -0.2995173 0.19887568
0.3367938 0.12938055 -0.14919662 0.008634401 -0.016950546 0.13405058 -0.08707683 0.104664005
-0.09409078 -0.36415565 0.051364135 0.11367851 -0.16370538 -0.32710883 0.09686313 -0.32460904
0.14337635 -0.30025017 0.20236573 -0.12761074 0.2818362 0.1921843 0.023453284 0.09591151
-0.22324072 0.19651094 -0.14099124 0.25108 -0.04489244 -0.45250836 -0.3197711 -0.28361103
0.18623 -0.2594598 -0.20817173 -0.04246926 -0.08884738 0.024375156 -0.06332118 -0.21651693
0.17322466 0.15780705 0.08002648 0.16786595 -0.2047182 0.17031193 -0.36368316 0.008024017
-0.28382605 -0.041400902 -0.007448523 -0.13964695 -0.121057495 0.031167531 -0.0066488152 -0.22464931
-0.09045441 0.3156314 0.022909673 -0.13607347 -0.13316953 -0.15473288 0.21362506 0.23170877
-0.36524615 0.053932965 0.15309234 0.27183238 0.24387245 -0.03673558 0.020567931 -0.087460965
-0.16368565 -0.41338187 -0.30974588 0.08137942 -0.3419966 -0.022408301 0.37687707 -0.0465683
0.16212535 -0.12209453 0.10544843 0.4173136 -0.29335162 0.0141843865 -0.085561626 -0.0024581044
-0.15020004 -0.047319338 -0.21577008 0.32834673 -0.16158064 -0.37139702 0.13955697 -0.17212969
0.14019915 0.111380346 0.12601182 -0.21393874 -0.31488073 0.019375484 0.1838203 0.1600257
0.246628 -0.3509492 -0.09057239 0.1385049 -0.014648013 -0.42221746 -0.08902288 -0.27967316
0.063188694 -0.29505554 -0.22872834 -0.19372793 -0.05476575 0.04135888 -0.010650225 0.3523745

net.2.weight f4 [256, 256]
00000000: 2833 4e3d 1fc6 5d3d a599 8ebc 8b56 56bc
00000010: 341d 87bd cd6d c5bc 8486 123c c7cf 94ba
00000020: c041 863d d2da a0bc 5cac eb3b dfcd 24bc
00000030: 3ff5 863c ddd4 1cbd cfc6 16bc 5caf 54bc
00000040: 5d95 82bb a74d f13c a149 82bb c402 b03c
00000050: 67d8 98bb 04df ddbd 0c7a 75bd 7ba8 0dbd
00000060: e4e6 d13c e806 8dbd 0b7d 383d 3b44 373d
00000070: 1124 e9bc d20c 353d 3740 483d 3ca1 d93b
00000080: 2e9e 03bd d98d c139 5fda babc 3cdd 86bb
00000090: e82d 20bd c5ef 69bc 70c4 ce3c 4901 3dbc
000000a0: dfe7 03bc be28 653c 2b58 14bc 75f0 ec3c
000000b0: 9e63 51bd a4cd 8bbc 16c0 4a3d 5fb3 393d
000000c0: da63 5cbc 4adc de3c 9617 1d3d 9bf4 4b3d
000000d0: c9ab 873a 8f4b 983c 167d d4bc 0cd5 5fbc
000000e0: dc00 033d 7e40 813c ed35 f5bc 982e babc
000000f0: c3c1 d9bc 2e62 e13c 6e87 2bbd 16c7 aebc
00000100: 51ea 273d bf0a af3c 5822 bf3c 4b85 fdbc
00000110: a220 963d 5f51 223d 9a71 303d 12f1 16bd
00000120: 43c0 d8bc 9fc5 76bb b400 f4bc 3bee 123d
00000130: efee d03c 4dea 8e3d abe2 45bc a060 9f3c
00000140: 6e26 a3bc fa80 18bd c796 463c 8748 f0bc
00000150: 2d96 ae3c 6461 bbbc c997 4e3d fa46 23bc
00000160: 2304 ae3a f51a 233d 1b70 dbbb 269b 12bc
00000170: b08b 2e3d ab82 013d a87d 08bd de35 fe3c
00000180: ce36 a4ba d871 0c3c e6ed 973a ea54 4a3d
00000190: 718a b4bc f922 283d e649 e2bc a2e0 8d3a
000001a0: 5509 48bd a8a0 2fbd bf69 5a3c 831a 37bd
000001b0: 2038 9abc 9e03 2c3d c333 1b3d 4893 443d
000001c0: 9481 ac3d 0093 1ebd ec65 053d 8e6b 4ebd
000001d0: 6651 c83b 4395 233c 2673 fb3c b1ba df3c
000001e0: 8420 65bc 8134 7e3c f42d 1dbd 0bb1 2e3d
000001f0: eb2b 74bd 8d95 a6bc 4eb8 d83c de4b 773d
00000200: c424 92ba c7d7 48bd f3db 47bc fe02 2d3d
00000210: 0d36 a83d c98c bd3c e22d 97bc 548d 783d
00000220: 004c 243c 185f 41bd 11a9 dabc cbf4 04bd
00000230: 55de 5d3d a4c0 173c 2912 033d e0bb f43c
00000240: e3f7 86bc 9798 6bbc 9204 73bb 1954 bb3c
00000250: a991 f8ba 259c be3c f181 303d 4723 813d
00000260: 0074 1a3a ad9e c03d 6fd2 10bd 0a93 823d
00000270: a58a 36bb 7e58 823d 4583 273d 7d93 f5bc
00000280: 13fd 03bd b3d3 403c d7bc b7bb 56ed 283d
00000290: 38c5 db3a 26d1 303d 9a27 243c abed 8cbc
000002a0: fcd1 3cbc 2d9a 87bc 672b 0c3d 0b92 293c
000002b0: 947c 733c d692 673c 47a5 4f3d 9c05 26bd
000002c0: c837 04bd 63e9 8ebb 2a42 73bd 15a7 8c3c
000002d0: 3386 a73c 3bdd 1dbd 7dcd 5e3d a48a 07bd
000002e0: f532 893c 2253 043d 99e1 2dbd c902 48bc
000002f0: 369f 42bc d64f 283c 3246 ff3b 4728 5b3d
00000300: 147d 4ebc 957f 533d 5cc7 013d 6993 41bd
00000310: b894 41bd 2211 3cbc 7284 0f3d 2814 003e
00000320: 9ee9 97bc 1389 1ebb 27b3 8b3d 67b9 d83b
00000330: a45e 1d3c ac67 9f3a 864b 0bbd 05a8 26bd
00000340: 7556 f0bc 121e 4d3c 6ca5 323d 34f8 813c
00000350: ecb7 263c 168f 06bc 6274 77bc 8422 50ba
00000360: 8229 ed3c 5267 60bc a98a 8ebb 34d5 063d
00000370: 5b85 3d3b 7773 b63c b252 d7bc 2618 863c
00000380: 5d8c 6d3c 109d e0bc b4cf 533a d33b e4bc
00000390: 8529 50bd 9274 c53c f731 91bc beb1 07bd
000003a0: 488a 50bc 38a4 88bc 704e bd3c e9da ae3c
000003b0: b774 593d c8f5 9ebb aebc 2c3d 3c20 863d
000003c0: 1481 233d 348a 113c e4a1 8abc 79ee 513d
000003d0: c93d 243b dcf6 3abc c844 4e3c ec51 923c
000003e0: c6f2 c53c 4fe8 44bc 199f 8fbc e442 05bd
000003f0: 8989 62bd 3b8a b83d db5a ba3c 2905 faba
0.050341755 0.05414402 -0.017407248 -0.013082157 -0.06597367 -0.024100209 0.008943204 -0.0011353426
0.065555096 -0.019635592 0.0071921777 -0.010058849 0.016474364 -0.03828894 -0.009202673 -0.012981262
-0.0039850906 0.029455973 -0.0039760624 0.021485694 -0.004664469 -0.108335525 -0.059930846 -0.034584504
0.025622793 -0.06886083 0.045041125 0.044742804 -0.02845958 0.04420168 0.048889365 0.006641535
-0.032133274 0.00036917513 -0.022809206 -0.0041157287 -0.03910628 -0.014278357 0.025240153 -0.011535951
-0.008050888 0.0139867645 -0.009054224 0.028923253 -0.051120393 -0.01706583 0.049499594 0.045337077
-0.013451541 0.027204651 0.03835257 0.04979382 0.0010350879 0.018590717 -0.025938552 -0.013661634
0.03198324 0.015777823 -0.02993294 -0.022727296 -0.02658165 0.027512636 -0.041877203 -0.021335166
0.040994946 0.021367429 0.023331806 -0.030947348 0.07330443 0.039628383 0.04307709 -0.036850996
-0.026458865 -0.0037654412 -0.029785492 0.035871726 0.025504557 0.06978283 -0.012077968 0.019455254
-0.019915786 -0.037232377 0.012120909 -0.029331459 0.021311844 -0.022873588 0.050437722 -0.009965653
0.0013276379 0.03982063 -0.0066967136 -0.008948123 0.042613685 0.031618755 -0.03332296 0.031031545
-0.001252854 0.008572064 0.0011591285 0.049397387 -0.02203867 0.041048978 -0.027623128 0.0010824392
-0.048837025 -0.042877823 0.013330876 -0.044703018 -0.01882559 0.041995637 0.03789116 0.04799202
0.084231526 -0.03871441 0.032567903 -0.05039554 0.006113219 0.009984317 0.030694555 0.027310701
-0.013984803 0.015515448 -0.038373902 0.04264931 -0.059612196 -0.020334983 0.02645507 0.060375087
-0.0011149873 -0.049033906 -0.012198436 0.04223918 0.08213434 0.02313842 -0.018454496 0.060681656
0.010027885 -0.04720983 -0.026691945 -0.032460015 0.05416711 0.009262238 0.03199974 0.029874742
-0.016475623 -0.014379642 -0.0037081582 0.02286725 -0.0018964309 0.023267815 0.04309267 0.06305557
0.0005891919 0.09405265 -0.035356935 0.06375702 -0.0027853635 0.06364535 0.040896673 -0.029977554
-0.032223772 0.011769223 -0.0056072283 0.041241966 0.001676715 0.04316821 0.010019207 -0.017203173
-0.011524674 -0.016553009 0.03422108 0.010349761 0.014861245 0.0141341295 0.05069473 -0.040532693
-0.03227976 -0.004361318 -0.05938927 0.017169515 0.020449733 -0.03854106 0.054395188 -0.033091202
0.016747931 0.032305844 -0.042451475 -0.012207695 -0.011878779 0.010272941 0.0077903504 0.05350521
-0.012603063 0.051635344 0.031684265 -0.047259722 -0.04726097 -0.011478694 0.03503842 0.12507689
-0.018544015 -0.002419059 0.0682128 0.0066138986 0.009605084 0.0012161634 -0.03400757 -0.04068758
-0.0293381 0.012519376 0.04361479 0.015865423 0.010175686 -0.008212825 -0.015103431 -0.00079397135
0.028950457 -0.0136965085 -0.0043500257 0.03291817 0.0028918597 0.022271855 -0.02628455 0.016368937
0.014498797 -0.027418643 0.00080799614 -0.027860558 -0.050820846 0.024103437 -0.01772402 -0.033128493
-0.012728281 -0.016679868 0.023108691 0.021344619 0.053089824 -0.0048510768 0.042172126 0.06549117
0.03991802 0.008883048 -0.016922899 0.051252816 0.002506124 -0.011411395 0.012589641 0.017861329
0.024163615 -0.012018277 -0.017531918 -0.032534495 -0.055306945 0.0901074 0.022748401 -0.0019075024

net.2.bias f4 [256]
00000000: 6e77 953c 9d41 c6bd ab18 e4bc 5a5b b43c
00000010: ad07 cabb bcc6 0ebc cfcd f03c ecd6 693d
00000020: 084e 5f3b 2db6 743d 9645 95bd caed 253e
00000030: d1c3 52bd 7aad c7bd a790 023d 1760 a3bc
00000040: 347d 06bd a967 083d 6e99 11bd c140 ab3b
00000050: 2c01 38bd 3b8d d4bc 3e0f e93c ce57 2a3d
00000060: 9b46 503d 5134 693d 6935 87bc c3e1 ad3a
00000070: f8ee 49bc ec34 433d 7488 1f3d f1a2 ae3d
00000080: 56ff fbbc fbf0 673d 84d4 15bc 9393 073d
00000090: 0f80 fa3c b73d f53c 124d 653c 0cc8 52bd
000000a0: 2651 5b3d 4d10 5b3c 361d 173c f515 1abc
000000b0: 9e77 70bd 023e 9b3c 12ba a0bb 07a8 093e
000000c0: b0f9 043d 6d83 d43c 4089 843c 929f 8ebb
000000d0: 8ca5 c1bc 1049 3cbd beac cabc 3772 d93b
000000e0: 53be a83b 830c 133d 1ef3 8d3c 8921 2fbd
000000f0: 3915 9bbd 9854 933d cf23 4c3d 103c a9bb
00000100: 6502 483d 6784 abbc 9750 9b3c c557 903b
00000110: 6711 76bd 764e f9bb 5929 213d 3417 b2bc
00000120: 1ea6 ad3d 34f3 1f3d 7a66 ab3b 08a3 ad3c
00000130: 8a7f 603c 4429 193c 93cd 13bd 6bb8 49bd
00000140: ae32 823d 6bda 713d d70b 73bc 6214 ebbb
00000150: 3817 61bc c81e e53c 2288 d53c be7c 453d
00000160: f42a da3c c6d0 12bc aca3 363b 58c7 3f3d
00000170: 59e7 cbbc 5a8d 8fbd 70f6 323c 684f 673d
00000180: ef2f bdbc 4318 15bd c76c 08bd dc47 823c
00000190: 1e4d e23c 0d7f 123d 4e96 d6bc 0b5d 463d
000001a0: dd49 123c f7bd 053a 9be1 0fbc 52d4 263e
000001b0: aa6b 61bd ff0d 1b38 6d9c 023d f0e7 8a3c
000001c0: 05f4 80bc 0b4d 53bc 6cbf 3d3d 25fa ce3d
000001d0: d217 cf3b f19e 4ebd 2ea3 5dbd eb78 113d
000001e0: 53ee ebba b97a b03b 4f5b c23c 59b4 173d
000001f0: 3476 0bbd 3210 bc3b 346e f73b 7200 3ebd
00000200: ae42 f23b 4320 10bd cf8b 8d3b d853 023c
00000210: a5a6 c3bc 0679 a13c 20a0 6bbd f716 a23c
00000220: 9b54 3cbd 5c14 ac3d c52e 653d 4e03 413d
00000230: 698b 88bd e6e5 ae3d 84b4 173c 9187 5fbd
00000240: 72b1 b13d e95e 37bd d3ba e2ba 4727 a03c
00000250: 4bbc 5d3d 4482 e2bc 3d31 3e3d fcc4 8fbc
00000260: f3d8 4bbb 576c 6bbd aeab b33c 711b 44ba
00000270: 2985 033d 8b8d 05bd f2db 40bb d7e2 f3bb
00000280: ac30 bf3c 7460 9a3c 835d 20bd 40f6 80bd
00000290: 549f 043d a54f 6dbd b2ec bd3c 6240 2c3c
000002a0: 7fe6 813c f75f 0c3d 8f00 763d 050e 49bc
000002b0: 0a98 5dbc 91f9 c03b b73c 21bd bce9 ee3c
000002c0: 03c3 423d f753 173d 82dd 55bc a4be 523c
000002d0: c053 c03c 1c39 3bbc 6e72 eebc 1943 cd3c
000002e0: 678f c0ba 62bb 7dbd bc5a 593d 0786 74bb
000002f0: 50f8 813c adcc 55ba 888c f53c c065 873c
00000300: ee0a 1f3c 5623 153d 0600 9d3c 656a cc3c
00000310: 8120 ce39 d982 323d 7714 01bb e9a8 113d
00000320: 47c0 7c3b 8d76 d2bb 8795 4fbc 297f 6abd
00000330: 81d8 8dbc 3cba ff3b ced3 563c 8369 00bd
00000340: b39f 8b3d 4aaa 203c a507 a0bc 26a4 34bd
00000350: 5bc8 64bd 18de 1bbd facd 2d3c e487 873c
00000360: bc6e 4d3c 1e00 40bc 16af 1f3d f5ff 163e
00000370: aa25 60bd 2aeb a2bc c970 223d 18af 6a3d
00000380: 06b8 41bd 35d0 13bc 4119 d53c ede8 9e3b
00000390: 1702 bfbc ecbf 6cbd 4718 913d 0beb b33b
000003a0: 4c78 14b9 9e1f d13d 9056 bf3c f62f 8dbc
000003b0: e3bd 073c 3a7c 90bd 326b 77bc a088 99bc
000003c0: c116 39bd 24fa 433d c76c aa3c 8ad3 883c
000003d0: 0775 7e3d 22d5 e13c cd74 1b3c 82a5 aa3c
000003e0: 60a4 053b e1a7 b13c 68af 08bc 55d5 9a3c
000003f0: f50b f53c 9198 8abd 0a1b fe3c 7d56 34bc
0.018245425 -0.096804835 -0.027843794 0.022016216 -0.006165466 -0.008714374 0.029395012 0.05708973
0.003407361 0.05974405 -0.07288663 0.1620399 -0.051456276 -0.09749885 0.031876232 -0.01994328
-0.032834247 0.033301983 -0.035546713 0.005226225 -0.044922993 -0.02594625 0.02844965 0.041587643
0.050848585 0.05693466 -0.01650496 0.0013266135 -0.012325041 0.047657892 0.03894849 0.08527172
-0.030761402 0.0566263 -0.009144906 0.033099722 0.030578641 0.029936654 0.013995426 -0.05146031
0.053544186 0.013370586 0.009223273 -0.009404649 -0.058707826 0.018950466 -0.004904994 0.13443004
0.032464683 0.025941575 0.016178727 -0.0043525184 -0.02363851 -0.045968115 -0.024740573 0.00663593
0.0051496415 0.035900604 0.017327841 -0.04275659 -0.07572407 0.07193869 0.049838837 -0.0051646307
0.04883041 -0.020937158 0.018959327 0.004404994 -0.06007519 -0.00760823 0.039346073 -0.02173958
0.0847895 0.039050296 0.005230722 0.021195903 0.013702283 0.009348217 -0.036084723 -0.04924814
0.06357323 0.05904619 -0.014834366 -0.0071740607 -0.013738446 0.02796878 0.02606589 0.048214667
0.02663181 -0.008960908 0.0027868552 0.04682097 -0.024890589 -0.070093825 0.010923013 0.056472212
-0.023094146 -0.03640009 -0.033306863 0.015903406 0.027624663 0.035765696 -0.026194718 0.048428576
0.008928743 0.00051018543 -0.008781816 0.16291931 -0.055034317 3.6967915e-05 0.03188746 0.0169563
-0.015741358 -0.012896786 0.046325132 0.10106305 0.0063199783 -0.050444547 -0.0541107 0.035515707
-0.0018000103 0.0053857234 0.02372518 0.037037227 -0.034048274 0.0057392353 0.007550979 -0.046387143
0.0073932027 -0.035187017 0.004319645 0.00795456 -0.023883173 0.019711029 -0.057525754 0.019786341
-0.045979124 0.08402321 0.055952806 0.047122292 -0.066672154 0.085399434 0.009259347 -0.054572646
0.08676423 -0.044768248 -0.001729811 0.019549979 0.05413465 -0.027650006 0.046433676 -0.017549984
-0.0031104654 -0.057476368 0.02193245 -0.0007480896 0.032109413 -0.03260569 -0.0029427973 -0.007442813
0.023338638 0.01884482 -0.03915168 -0.062969685 0.03237851 -0.057937283 0.023184154 0.010513397
0.01585698 0.034271207 0.060059126 -0.012271409 -0.0135250185 0.0058891256 -0.039364543 0.029164188
0.04754926 0.03694531 -0.0130533 0.012862835 0.023477435 -0.01142719 -0.029107299 0.025056409
-0.0014691175 -0.06194628 0.053065047 -0.0037311332 0.015865475 -0.0008155804 0.029974237 0.01652801
0.009707196 0.036410652 0.01916505 0.024953077 0.000393156 0.043581817 -0.0019696036 0.035561476
0.0038566755 -0.0064228238 -0.012669927 -0.057250176 -0.017315151 0.0078041833 0.013112022 -0.031350624
0.068175696 0.009806225 -0.019534895 -0.044101857 -0.055855136 -0.038053602 0.010608191 0.01654429
0.012538608 -0.011718778 0.038985334 0.14746077 -0.05472342 -0.019887526 0.03965834 0.05729589
-0.04729464 -0.009021808 0.026013019 0.0048495443 -0.023316426 -0.05780022 0.07084709 0.005490666
-0.00014159194 0.102111086 0.023356706 -0.017234784 0.008285019 -0.07054944 -0.015101241 -0.018741906
-0.045187715 0.047845975 0.020803822 0.016702432 0.062123325 0.02756745 0.009488297 0.020830873
0.0020392165 0.021686496 -0.008342601 0.018900553 0.029912928 -0.06767381 0.031018753 -0.011006949

net.4.weight f4 [256, 256]
00000000: 3d04 cabb 727d 1dbd a052 123d cf80 0c3d
00000010: 27ec b2bc 1ecd c9ba 4843 643c 1d91 01bd
00000020: 2aa4 a7bc 80fd 1bbb 7a40 88bd f418 c43d
00000030: 2073 b73d 57ac 373d bcea 97bc dd85 8bbc
00000040: e537 ddbc 09e7 393d ef5c e93a 7644 b3bc
00000050: 6989 c0bc 35eb 93bc 05f3 833c 7148 fe3c
00000060: 41e1 f93c ebae 973b f948 bdbc 2ecf 11bc
00000070: 2c48 d9bc 33f8 5dba 6d1a 533d 1c84 69bc
00000080: 919d d23b bb1f 8dbc c535 3dbd 1755 54b9
00000090: 97dd f73b 6541 073d 85b6 85bd 7986 923c
000000a0: 6739 863b dc8e 1fbd 3175 47ba 5c14 69bd
000000b0: 12f8 e4bc d38d dabc 3afc acbc 33c8 ab3c
000000c0: 300d bfb9 b300 feb9 8195 553b ffe0 06bb
000000d0: a616 adbc d7af 67bd 9cce df3b d3ae abbc
000000e0: 478c b53c 39bc 7f3c 4650 3e3a c074 713d
000000f0: 74b8 4ebb 32f9 063d f54a 393d c767 d13c
00000100: 8e55 6bbd 11a7 88bd 30fc cfbb fbee ce3b
00000110: 3f92 123d 0cf1 d13b da08 3d3d 40d2 813a
00000120: 4ed6 613d e6f9 223c 6b58 ecbc effe 2bbd
00000130: 63c6 333c 2e3b 17bc 8f2e 42bc 1f1a e3bc
00000140: 0e46 9fbb 01d5 41bc ba98 693d 1ed2 503d
00000150: 6215 f8bc 0a89 cebc 2434 753c 2fac a1bb
00000160: fd4c dfbc 6ccc 813b bee3 ee3b bb74 1ebb
00000170: e7dc 833c 4ed9 b3bc 1bae 37bd c6ad 02bc
00000180: 6a12 87bb f6eb 9c3b 8011 3fbd 468d f63c
00000190: 3a84 0e3d c9a4 b83b 7b95 0ebd 0d47 973d
000001a0: 0db3 253d 5da9 773c 9771 06bd 36ed b33d
000001b0: cad7 54bd 586c 28bd 820e 07bb f7d4 91bb
000001c0: 6d43 e93b 1cdf fcbb c69f ba3c b1d5 133d
000001d0: 5f42 caba bd6c 553b 8e5f b93b 712f 933c
000001e0: 6849 0b3c f848 04bd 6245 bcbc 2398 22bc
000001f0: fde0 00bd d14d 3b3c 4f4a 3fbd c8f3 c3bc
00000200: 5968 f83c ed8c 44bd d1f2 5a3c 33e1 9abc
00000210: e7d2 163d eb37 e63b 410a c53c 5289 4e3d
00000220: e8e3 80bc 8abf 36bc 1ea2 523c 9271 a6bc
00000230: 3d2c e0bc eb1d c53d cc1e c73c 7a23 9b3c
00000240: d116 783d 469e 74bc 0ccc 3ebc 2f2d f6bc
00000250: c3b1 e5bc 7d6d 2d3c 22a6 933c ce0c db39
00000260: 6571 c0bd c414 883c d07b 75bd a66c 82bc
00000270: 2da6 973a fa91 fc3c 39e2 5f3d 52cd 0fbc
00000280: 4845 e7bc 021b 41bd f11a e2bc 97c4 80be
00000290: 10d3 243c 061a 9abc 0b4c 2939 d18d 523d
000002a0: b0bf 313d 7e15 173d 1793 af3c c34c 9d3b
000002b0: e583 39be 7267 62bd e909 a1bc c825 4fbd
000002c0: b7dc fa3c 1ed2 c43c ebbf 2c3d abed 71bc
000002d0: 8e6f 0fbb d906 f2bc ba11 373c e889 073d
000002e0: db9b 1b3d 1686 903d 0daa 803d e43a 0a3d
000002f0: ff3e c4ba 1b1e d7ba 05a3 27bd 2b2e f93c
00000300: 05d7 c1bc 80fa d1bd 2a88 3d3c 8fac 0bbd
00000310: 1a38 5b3b 0696 a43d 47fe 5e3c 33f0 0fbd
00000320: 495f 993b 793e 90ba 7ed5 943c d315 8dbb
00000330: 3b90 0bbd 8727 7abc cd25 623c 06be 12bd
00000340: c615 103d 6be4 553c 1cfa 043c e07f 42bc
00000350: 0166 febc fc2d 16bc 2980 8e3b d015 f4ba
00000360: fc9a 02b9 8292 2f3d 81be c53c 251a 343d
00000370: b092 cdbd b465 bcbb f61a c6bc 0d5e 393d
00000380: 9f41 4b3d 24bf 063d 025d 91bd 41d2 c2bc
00000390: bdfb cd3c 5e18 91bc 9971 12bd c985 97bc
000003a0: 3d84 7f3c ab6a 543c 8c96 5e3c c1bb aebb
000003b0: 6f60 033d da77 37be 6fb4 92bb d3d5 21bd
000003c0: bccd c13b 421d 0abc ed4f f43c c6de 6c3d
000003d0: 3fdf 10bd d816 213d 8e5d 67bd afad 693c
000003e0: 5e0e a8bc f93d 853d a99f a5bc 37c6 793d
000003f0: a105 ff3c cc42 f8bc 4c3f c6bb 4579 c63c
-0.006165056 -0.038449712 0.03572333 0.03430253 -0.021841122 -0.0015396213 0.013932057 -0.03163253
-0.020464022 -0.002380222 -0.06652923 0.09575072 0.08957505 0.04484209 -0.018544547 -0.017031604
-0.027004192 0.045386348 0.0017804186 -0.02188323 -0.023503022 -0.018056491 0.016107092 0.031040402
0.030502917 0.004629006 -0.023106085 -0.008899493 -0.026523672 -0.00084674655 0.051538873 -0.014252689
0.006427475 -0.017227044 -0.046193857 -0.00020249594 0.0075642574 0.03302135 -0.065289535 0.017886387
0.0040961984 -0.0389546 -0.00076087104 -0.05690418 -0.02795032 -0.026678955 -0.021116365 0.020969486
-0.00036440184 -0.00048447176 0.0032590332 -0.0020580885 -0.021128964 -0.05656418 0.0068300497 -0.020957386
0.022161616 0.015608841 0.00072598865 0.058949232 -0.0031543048 0.032952495 0.0452375 0.02556218
-0.05745464 -0.066724904 -0.0063472018 0.00631511 0.035784002 0.006406909 0.04615102 0.0009904578
0.055136018 0.009947276 -0.028850755 -0.04199117 0.010972592 -0.009230418 -0.011851921 -0.027722416
-0.004860646 -0.011830569 0.057030417 0.050981633 -0.030283634 -0.02521183 0.014966045 -0.004933856
-0.02725839 0.0039611366 0.0072903326 -0.0024178463 0.016096545 -0.021954205 -0.044843774 -0.007976001
-0.004122068 0.004788871 -0.04664755 0.030096661 0.03479407 0.0056348783 -0.034810524 0.07386599
0.04045396 0.015116063 -0.03282317 0.08785479 -0.051963605 -0.04111895 -0.0020608013 -0.004450436
0.0071186335 -0.0077170264 0.022781264 0.036092464 -0.0015431157 0.0032566034 0.005657143 0.017966958
0.008501388 -0.03229615 -0.022982303 -0.0099239675 -0.031464566 0.011432127 -0.046701726 -0.023919955
0.030323194 -0.04798596 0.013363556 -0.018906211 0.036822226 0.007025709 0.024052741 0.050423928
-0.015733674 -0.011154065 0.012856035 -0.020317826 -0.027364844 0.09624847 0.024306677 0.018937815
0.060568634 -0.014930313 -0.011645328 -0.030050842 -0.028038865 0.010585186 0.018023554 0.00041780475
-0.09396628 0.016611464 -0.05993253 -0.015920948 0.001156991 0.030831326 0.054659102 -0.0087769795
-0.028231278 -0.047144897 -0.027600737 -0.25149986 0.010060087 -0.018811237 0.00016145424 0.051404778
0.043395698 0.03688573 0.021432443 0.0048004105 -0.1811672 -0.055274434 -0.019658046 -0.05057314
0.030622823 0.024025973 0.042175215 -0.014766137 -0.002188656 -0.02954428 0.01117366 0.033090502
0.037990432 0.07056825 0.062824346 0.03374757 -0.0014972388 -0.001641217 -0.040926952 0.030417522
-0.0236621 -0.10252857 0.011568109 -0.03410011 0.0033450187 0.08036427 0.013610429 -0.03514118
0.0046805483 -0.0011004946 0.018168207 -0.00430558 -0.034073096 -0.015268213 0.013802958 -0.03582575
0.035177015 0.013054947 0.008116271 -0.011871308 -0.031054499 -0.009166237 0.004348774 -0.0018622223
-0.00012455502 0.04286433 0.02413869 0.043970246 -0.10037744 -0.0057494286 -0.024182778 0.04525571
0.049623128 0.03289713 -0.07097818 -0.023781898 0.025144452 -0.017711814 -0.035752866 -0.01849641
0.015595493 0.012964885 0.013585698 -0.0053324406 0.032074388 -0.17916813 -0.0044770758 -0.03951056
0.005914418 -0.008429827 0.029823268 0.05782964 -0.035369154 0.039328426 -0.056485705 0.014262601
-0.020514663 0.06505961 -0.020217733 0.060980048 0.031130614 -0.030305289 -0.006050026 0.024227748

net.4.bias f4 [256]
00000000: 593c 2a3d 54bd 4c3c 6320 0abd 472c 42bc
00000010: 6c05 a8ba cb4a c53b 0d14 afbc 1acb 803c
00000020: e061 44bc 4dc7 aabc 3638 ceba b9d0 3bbc
00000030: 7c66 adbd e29a 69bc 8dc2 e9bb cf88 8fbb
00000040: b265 e8bc 9ff0 bb3c 661e 013d aafc 593c
00000050: 9534 e13c 1c11 acbd dbc8 8dbc eb96 5e3c
00000060: eed8 c2bc ff9c 16bc 19eb 48be 1744 863c
00000070: 1b2d 92bd 264d 1a3d 7904 bfbb 2cb6 ecb8
00000080: f0c0 da3c 84f7 9dbd 8542 dabc 1487 74bc
00000090: 6120 d6bd 240f ee3c d1df c93c 8114 40bd
000000a0: d75a ffbb 0f6e d8bc 7e04 7f3b fb27 32bc
000000b0: 25e0 d83b b042 b63c 127a babc bf0a 893b
000000c0: d156 243d d834 2e3d e450 ba3c 4422 d03c
000000d0: 34cc 333d 6c73 483c 6ce5 d03c 3a41 b1bc
000000e0: 80c5 8ebc 7933 2f3c a9a2 efbb 2db9 39bc
000000f0: 7aa7 bd3c 1b20 523d 8fc2 113d 736a 7dba
00000100: c80e da3c 1615 bebd bfeb 59bb aa25 0fbd
00000110: 80c3 323c 1ebd 45bd d4be d93c fd40 db3b
00000120: 378a 05bd 2dee d7bc 340d a03c 0476 16bd
00000130: 4b75 673d 6856 57bd 7200 a13a 348b 7f3c
00000140: 4e90 223d cdd6 2b3d a5c1 393d e5ff fbbb
00000150: b042 46bc de35 91bd c604 183d a4bb f6bc
00000160: f709 e8ba 4d57 d23c 3a9c 8f3d c985 d4bb
00000170: 5da5 de3c 03a7 303d 8128 5dbd a943 9dbd
00000180: e9d6 d2bc d903 b0bb a3f5 febc 1634 aabd
00000190: 3e67 39be 1332 3b3d 8805 15bd 73bd 9abc
000001a0: 25a8 1b3d 55bc ce3c ab6d ba3c 185b 533d
000001b0: da73 5c3d 0900 afbb 879d 18bd 72ed dcbc
000001c0: 691d f2bc 2cb4 6c3c 15ff 993c 7fde 5bbd
000001d0: dc71 edbb 3ba4 323d d4f7 103d 4212 7cbc
000001e0: b718 09bd ef89 003d 3a94 523c 49b1 383d
000001f0: 821b e7bd 90c8 d83b 41fe 0c3d 8052 e13c
00000200: f1b0 fabd 4d7e 9d3c bdf0 c93c a25b 883c
00000210: 8adc 183d 3132 22be 0fd2 06bd e9ae 953a
00000220: 819d 893c 15a3 3d3c 3ec1 c5bc b7d0 f73b
00000230: 85a3 193d 8813 11bd 703b 18bc 9ea7 303d
00000240: 5bac d2bb 80e7 dc3c c3fb 22b9 803b 163b
00000250: fff9 fa3b 2831 4ebc c930 e3bb 900c 163d
00000260: 84d5 4dbc acbf d5bd fdc9 8fbd 5ae6 33bd
00000270: 1a1d 5ebc c847 983c 74b8 913c 799c 1dbc
00000280: 3f6d 62bc 23dd 333c 20a3 4a3c 152c 45bc
00000290: 897c 70bc 84a8 4bbb dc83 86bd 241c 3c3c
000002a0: b558 803c 9e54 aebc 8925 19bd 44d8 2dbd
000002b0: 5796 963c f1ce 0a3d a5e9 3cbd 5c99 3ebd
000002c0: dceb 43bc 53e2 903a 0e5f 113d 8828 d23c
000002d0: 9ce9 94bc a685 0e3d 01d0 8c3c cbe1 ea39
000002e0: 5c0c 25bd 4758 d13c c504 48bd 976d a13b
000002f0: 6a96 eabc 837c 283c c6fa d5bc 7a5c ba3a
00000300: f9d1 1a3d a9ce 26bd d021 2c3d faac 173d
00000310: a251 34bd 4b55 563d 9340 0cbd 9fe9 353b
00000320: db19 37bc b915 4ebc c913 403c 7765 3abc
00000330: ab71 be3c aa33 8cbb 2351 b3bd ec5e 663c
00000340: 25fb c0b9 46f0 21bc 794c 4bbd 48da dc3b
00000350: ab98 d1bc c284 223d 5b55 27bd 4d13 823d
00000360: 98d3 98bd 56f2 503b c3d9 503d 2b7f b4bc
00000370: 9792 f63c 71cb 82bc 0bf3 d5bb 82f7 4bbc
00000380: 46c3 c5bb 43f4 07bc 22ce 18bd 35a3 44bd
00000390: 192b 07bd 695c ad3c 52ba bf3c 9a0a 9cbb
000003a0: a65b 22bd a726 203d 7a62 acbb 49dc 81bd
000003b0: dd06 98bd 93a9 c2bc e8f8 e6bc 482f 153d
000003c0: a5a4 e33c c010 be3c dc0f 4fbd 85e3 ba3a
000003d0: 5fc8 273d 9cb5 44bd 7d19 b0bc 909d 053d
000003e0: 563b 31bd 92fe 0abd 07c4 0bbd 52fc 343c
000003f0: 5d3b c7bc d80d 93bc 5950 09bd 11bc 7bbb
0.04156146 0.012496311 -0.033722293 -0.011851377 -0.0012818999 0.006020879 -0.021371866 0.015721846
-0.011986226 -0.020846987 -0.0015733305 -0.011463338 -0.08466813 -0.014258118 -0.007133788 -0.0043803225
-0.028368805 0.022941886 0.03152313 0.013304869 0.027490893 -0.08401701 -0.01730769 0.013585786
-0.02378508 -0.009192704 -0.19620933 0.01638989 -0.071375094 0.03767123 -0.0058293906 -0.00011287289
0.026703328 -0.077132255 -0.026643047 -0.014924783 -0.104553945 0.029059954 0.024642857 -0.046894554
-0.0077928114 -0.026419668 0.003891259 -0.01087379 0.006618517 0.022248596 -0.022763286 0.0041821892
0.040121857 0.042530864 0.02274365 0.025406964 0.043895915 0.01223455 0.025500022 -0.021637548
-0.01742816 0.010693424 -0.007313092 -0.011335653 0.023151148 0.05130015 0.035585936 -0.0009667046
0.026618376 -0.092813656 -0.0033252088 -0.03494803 0.010910869 -0.04827606 0.026580252 0.006691097
-0.032602515 -0.026358688 0.019537546 -0.036733642 0.056508344 -0.052572638 0.0012283458 0.015597153
0.0396884 0.041952897 0.04535069 -0.007690417 -0.0121008605 -0.070903525 0.037113927 -0.03011877
-0.0017703165 0.025676394 0.0701222 -0.006485675 0.02717846 0.043128025 -0.053993706 -0.07678921
-0.025737243 -0.0053715524 -0.031122988 -0.08310716 -0.1810579 0.04570205 -0.036382228 -0.018889165
0.038002152 0.025236288 0.022757372 0.051600546 0.053821422 -0.0053405804 -0.037259605 -0.026968691
-0.02955504 0.014447253 0.01879839 -0.053678986 -0.007246239 0.043613654 0.035392597 -0.015385212
-0.033470836 0.031381544 0.012852723 0.045090947 -0.112845436 0.006615706 0.034422163 0.02750516
-0.1224078 0.019225264 0.024650926 0.016645256 0.037319697 -0.15839459 -0.03291517 0.0011419925
0.016798737 0.011574526 -0.024139997 0.0075627225 0.03750946 -0.035419017 -0.009291515 0.043128602
-0.006429238 0.026965857 -0.00015543312 0.0022923648 0.0076591964 -0.012584962 -0.006933306 0.036633074
-0.012563113 -0.10436949 -0.07020948 -0.043920852 -0.013556743 0.018588915 0.01778815 -0.0096198255
-0.013819992 0.010978016 0.012367994 -0.012034436 -0.014678129 -0.0031075785 -0.06568119 0.011481319
0.015667299 -0.021280583 -0.037389312 -0.042442575 0.018382234 0.03388876 -0.04612126 -0.046532974
-0.011958089 0.0011053778 0.03549104 0.025654092 -0.0181778 0.034795426 0.017189028 0.00044800187
-0.04029499 0.02555479 -0.048832674 0.004926394 -0.028636176 0.010283592 -0.026120555 0.0014218234
0.0377979 -0.04072443 0.042024434 0.037030198 -0.044023164 0.052327435 -0.03424127 0.0027757657
-0.011175598 -0.012578421 0.011723467 -0.01137673 0.02324756 -0.00427862 -0.0875571 0.014060717
-0.0003680821 -0.009883946 -0.049633477 0.0067398883 -0.025585493 0.03967739 -0.040852886 0.063513376
-0.07462233 0.0031882725 0.050988924 -0.022033295 0.030099196 -0.015966149 -0.006529217 -0.012449147
-0.0060352413 -0.008297983 -0.03730596 -0.04800721 -0.033000086 0.021162229 0.023404274 -0.004762006
-0.039638184 0.03909936 -0.0052607628 -0.06340844 -0.07423184 -0.0237625 -0.02819486 0.036422044
0.02778847 0.023201346 -0.050552234 0.001425848 0.040962573 -0.04802476 -0.021496529 0.032620966
-0.043269478 -0.033934183 -0.034122493 0.011046486 -0.024320299 -0.017950937 -0.03352389 -0.0038411657

net.6.weight f4 [2, 256]
00000000: 9449 5e3c e7e6 1ab9 0b07 ac38 db92 3539
00000010: b124 75b8 1397 04bd 5bad a9bc e07d 0739
00000020: 0a46 36b9 3d14 b0b7 83a8 6337 c5be 0139
00000030: 6122 24bd a23b b2bd 817b 973c c055 14b8
00000040: 557e 4138 2a0d 3eb9 4d59 cfb8 173d 5f3d
00000050: b719 84b9 f59c 483d cab2 14bc 4a33 b7bc
00000060: 27c1 fe3a 3b32 0a3a 80aa 0b3d 100d 613d
00000070: 42e2 cfbc 46bc 2c3c fc87 6239 52ec 2bb9
00000080: 2f92 0c39 42a8 223d 254c 1bbd 78bd edbc
00000090: 73ca a43c 1a9d 04b9 c685 08b6 0bc4 a4bd
000000a0: 1afb 3db8 3713 1dbc 930f 8dbc e1e8 c4b8
000000b0: 0658 553d 7ea1 0fbb b859 afbc 2696 56bc
000000c0: 394f 80bb 7836 8739 d6d9 7cbc 7abe 90b9
000000d0: f14c bb3a 53b4 6939 0d2a 7e37 39dc 323d
000000e0: caec bfbc 1786 1a3c b0d1 62b8 5897 dbbc
000000f0: d9e0 3139 776a f5b9 af38 ae37 f8e9 6fb8
00000100: 46be 18ba 3ba4 c73d 7226 273d d06e dcb8
00000110: 63a0 d538 7820 af3a 339a 58b6 fa12 8f38
00000120: 100a cb37 d58b 8b3c 24a5 2f37 af96 10bc
00000130: be7e 9a38 170d c93c 820d 433c 5399 f3b7
00000140: 519e 7a39 3f01 62bc e3ef 18b9 d8de 543c
00000150: 36a6 8639 0d2a 1e3c 20e8 06ba af87 e539
00000160: 65f2 953b 338c a639 5c08 ae3c d0fd 0139
00000170: ec47 5f3a 250b 68b9 adf9 6fbd 4d51 103d
00000180: 5a32 51bd adcd 35b9 a5c4 be3c 6f08 6ebc
00000190: 7694 3c3d 5356 713d 98b7 5839 1774 6839
000001a0: 6fb6 2d3d 228c 50b9 020e 5c39 c91a 86b8
000001b0: dd97 bbb8 e4bc 8db9 d272 8a3d e98e 3fb9
000001c0: 3b33 8b3c 9476 cf39 003e 85b9 8e85 173a
000001d0: df04 95b9 92bb af39 9c0b 3038 8e4e 4f3a
000001e0: 50ed 67bc 32b0 8d39 a8d6 ea37 999a b73c
000001f0: 5291 caba 3169 fc38 3219 2e3a c1e7 3eb9
00000200: 5f67 fb3b 6b8d 2c3a f8ab 6a3d 0c73 a239
00000210: cb3e 1e39 ce64 c5bd fedf 8cbc bc47 063c
00000220: c25d 93b8 f77c dbb9 f31f 89bc 4b79 0ebd
00000230: 0503 4437 f074 54ba 4a5b 8c38 1871 1139
00000240: f59a 25b8 834c 86bd cb33 b5b8 4b82 343d
00000250: 8064 33b8 6d32 1c3d 2571 223a d92b f1bc
00000260: d044 8fb8 4bc1 9cbc f299 6f3c 7c80 41b8
00000270: cf33 e4bc 950a 1e3a 117c 263a 9e79 49bd
00000280: 46b6 8539 380c 3f3a 0cce 1939 f374 dc39
00000290: d765 b63c 576c c2b8 a06b 6d3c 911a 493d
000002a0: 98cd a0b8 9065 77bd cb60 28bc c1c2 d0bd
000002b0: dc39 3339 011d 80b8 134e 1bbd b336 69ba
000002c0: 53f2 a2bc 9e1d aebc 6784 c8b8 3baf 8fb8
000002d0: 5df2 a1b7 4b32 263a a48b cc38 30f6 4439
000002e0: 750b 45b9 e2fd 6238 ab30 cd3d af9a 2dbd
000002f0: a76e b3b9 f8bd 3a39 938f 2f3b 704b 0e39
00000300: 6919 a13c bca5 0fbb 42ef 093a dfe2 1ebd
00000310: 440b 07bc 324a 23bd d2a2 f23c 0ca2 a937
00000320: 700a 0338 7c41 fc37 d8c4 57b9 bc35 31bd
00000330: e309 ca38 b207 11b9 d846 a73b 9819 86bc
00000340: 1175 9e3c 29b0 9bb7 b647 503c 22e5 d8bb
00000350: 0a1e a93c 154a b9b8 87f0 a938 8b02 a1bb
00000360: 5c2e 48bd bcf5 8fb8 0bcf e038 daeb 5538
00000370: ec59 c439 95a3 533a 0829 41b9 ec57 5cbc
00000380: 90e9 dfb7 37c4 123d 360f 7ab9 e408 373d
00000390: 13b4 7d3c c208 bdb8 06e7 063d 75f8 09bd
000003a0: 0e0b 1d3d bdfb 57bd 82bb 3fbd 094b 9c3b
000003b0: 0d71 f63c 6f8d 05b9 3554 79bc 7b20 6538
000003c0: 5d63 bcb9 8bea 60b9 76d8 10bc 4a53 0db9
000003d0: 8778 fb38 ba5c 8bb8 6ce3 6b39 284b 8039
000003e0: dc59 abbc 4be6 5433 b66b 4c3c b2c1 b439
000003f0: d72f cbb8 1d07 85bd 198c a63c 11bb adb9
0.013567347 -0.00014772602 8.202911e-05 0.00017316213 -5.8446723e-05 -0.032370638 -0.020712545 0.00012921495
-0.00017382964 -2.099026e-05 1.3569489e-05 0.00012373466 -0.04007185 -0.0870278 0.018491508 -3.536581e-05
4.613244e-05 -0.00018124716 -9.887163e-05 0.05450162 -0.0002519616 0.04897781 -0.00907583 -0.022363324
0.0019436226 0.0005271767 0.03409815 0.054944098 -0.025376443 0.010542935 0.00021603698 -0.00016395867
0.00013405898 0.039711244 -0.037914414 -0.02902101 0.020116067 -0.00012647026 -2.0343446e-06 -0.08045205
-4.5294968e-05 -0.009587101 -0.01721934 -9.3893854e-05 0.0520859 -0.0021916325 -0.021405086 -0.013097322
-0.003915694 0.0002578979 -0.0154327955 -0.00027607736 0.0014289898 0.00022287788 1.51493705e-05 0.043667052
-0.02342834 0.009431384 -5.4077886e-05 -0.026805565 0.00016963798 -0.00046809364 2.0768812e-05 -5.719994e-05
-0.0005826693 0.09748121 0.04080815 -0.00010511058 0.00010186506 0.0013361117 -3.2276264e-06 6.822306e-05
2.4204171e-05 0.01703445 1.0469263e-05 -0.008824988 7.3669e-05 0.024542375 0.011905076 -2.9039255e-05
0.00023900835 -0.013794242 -0.00014585214 0.012992583 0.00025682308 0.00965358 -0.00051462837 0.00043779376
0.004576015 0.00031766444 0.02124422 0.00012396951 0.0008517492 -0.00022129396 -0.05858772 0.035233784
-0.05107341 -0.00017338125 0.023287127 -0.014528378 0.04604002 0.058920216 0.00020667759 0.00022168491
0.04241031 -0.0001988863 0.00020986053 -6.394607e-05 -8.9451416e-05 -0.0002703435 0.067601815 -0.00018268418
0.016992202 0.00039570464 -0.0002541393 0.0005780094 -0.00028423124 0.00033518352 4.1972482e-05 0.0007908129
-0.014155701 0.00027024891 2.799493e-05 0.022412585 -0.0015454686 0.0001203589 0.00066413276 -0.00018206147
0.007672235 0.0006582352 0.05729291 0.00030984764 0.00015091446 -0.096383676 -0.017196652 0.008195814
-7.02697e-05 -0.0004186404 -0.016738867 -0.034783643 1.1683213e-05 -0.0008104583 6.692724e-05 0.00013870408
-3.948338e-05 -0.06557562 -8.6404e-05 0.04406957 -4.2770524e-05 0.038134027 0.00061966694 -0.029439854
-6.831589e-05 -0.019135138 0.014624106 -4.6134446e-05 -0.027856736 0.00060287985 0.0006350885 -0.04918825
0.0002550354 0.00072878925 0.00014667975 0.00042048804 0.022265358 -9.270821e-05 0.014490992 0.0490976
-7.667689e-05 -0.060399592 -0.0102769835 -0.10193396 0.00017092325 -6.108918e-05 -0.037916254 -0.00088963954
-0.01989094 -0.021254357 -9.561405e-05 -6.8514106e-05 -1.9305555e-05 0.00063398917 9.753488e-05 0.00018783729
-0.00018791652 5.4119046e-05 0.10019048 -0.042383846 -0.00034223983 0.00017809111 0.0026788458 0.00013570278
0.019665437 -0.0021918854 0.00052617874 -0.03879058 -0.008242432 -0.03986568 0.029618654 2.0221829e-05
3.1242555e-05 3.0071235e-05 -0.00020577328 -0.043264136 9.633952e-05 -0.00013831144 0.005104881 -0.016369626
0.019342931 -1.855947e-05 0.01271241 -0.0066191116 0.020644207 -8.835286e-05 8.10335e-05 -0.004913633
-0.048872337 -6.864543e-05 0.00010719717 5.100281e-05 0.0003745103 0.0008073387 -0.000184212 -0.013448697
-2.6692433e-05 0.035831656 -0.00023847524 0.044686213 0.015484828 -9.0138536e-05 0.032935165 -0.033684213
0.03834062 -0.05273031 -0.04680968 0.004769687 0.030083204 -0.00012736557 -0.01521783 5.4628104e-05
-0.00035932186 -0.00021449679 -0.008840671 -0.00013477835 0.00011991063 -6.645308e-05 0.00022496068 0.00024470058
-0.020916872 4.9569547e-08 0.012476852 0.0003447659 -9.688705e-05 -0.064954974 0.020330476 -0.00033136507

net.6.bias f4 [2]
00000000: 8034 a2bb 741a d6bc
-0.004950106 -0.02613566
