timeseris_example/MD/polyALA/MD_trained_polyALA.pt (torch, 354315 bytes, 9 tensors)

weight f4 [200, 128]
000000 b2 4f 7d 3f 6c 4d bb 3f de ce 1b bf e8 8c 67 bf
       0.9894973 1.4633002 -0.6086253 -0.9044938
000010 73 80 c9 be 78 4b ee 3f 15 c5 ad 3f 21 65 71 bd
       -0.3935581 1.8616781 1.357577 -0.058934335
000020 dc 1c e8 3f 56 a7 fb bf 26 6a bd be dc 0c 10 3f
       1.8133807 -1.9660442 -0.36995047 0.5626962
000030 15 de 38 3f 34 58 db bf de 14 d5 3e 4e b9 e5 3f
       0.7221387 -1.7136292 0.41617483 1.7947176
000040 38 85 82 3d 6c 60 6d 3f a0 4d b5 bf fe bb 12 3f
       0.06373066 0.92725253 -1.4164314 0.57318103
000050 62 c6 d7 3e 26 5a 30 3e 63 f5 d6 3d 83 b7 1c 3f
       0.42143542 0.17221889 0.104960226 0.61217517
000060 b1 79 aa 3f 84 df 71 3e c1 89 1b c0 c5 77 d4 bb
       1.3318387 0.2362042 -2.4302828 -0.006484004
000070 2c f0 3b bf 0c 30 ae bf 12 d5 a2 bf 2d e0 4a bf
       -0.7341335 -1.3608413 -1.2721274 -0.79248315
000080 5f 17 a2 be b2 cd 9e bf 53 83 e2 3e 38 da ea bf
       -0.31658456 -1.2406523 0.44240817 -1.8347845
000090 0a b5 f0 be a5 de b7 bf b7 23 38 3f c2 e7 13 bf
       -0.47013122 -1.4364821 0.71929497 -0.5777551
0000a0 1e e2 c1 be 7d e8 d0 bf 7c 95 9b bf 31 83 8e 3f
       -0.37867826 -1.632095 -1.2154994 1.1133786
0000b0 11 bc aa 3f 1a cc 9a 3f 9f b1 8b bf 80 cb 8f be
       1.3338643 1.2093537 -1.0913581 -0.28084946
0000c0 8f 33 de 3f f1 26 71 3d 40 d9 8b be dc a7 35 3d
       1.7359484 0.058875028 -0.27314186 0.044349536
0000d0 24 89 53 bd b2 90 ca be 0e e8 16 3f 9f cf 06 c0
       -0.05164446 -0.3956352 0.5894784 -2.1064222
0000e0 64 16 ac be 48 7a 8e 3f 4b f3 ac bf fe f0 a8 3f
       -0.33610833 1.1131067 -1.3511747 1.3198545
0000f0 a1 4a 8a 3e 63 22 f6 3f c5 be d6 3f 02 cb 2d bf
       0.27010062 1.9229244 1.6776968 -0.6788789
000100 6a 8f d3 bf 2c 60 a6 be 65 a4 93 3e 5e 20 7a be
       -1.6528141 -0.32495248 0.2883636 -0.2442641
000110 09 ce 27 bf 41 c3 aa bc b9 82 e6 3d 6b a1 7b 3f
       -0.6554876 -0.020845057 0.11255402 0.9829318
000120 7f 0f 05 40 6b ee 15 bf a3 aa ef 3d 9a 1d 5b bf
       2.0790708 -0.5856692 0.11702468 -0.85592043
000130 1c 90 a8 3e 9c 7b c6 be 3e f0 44 3f 91 b4 41 3f
       0.32922447 -0.3876618 0.7692908 0.7566615
000140 bb ba 9d 3e 6b c4 95 be 62 a7 c3 3e ba 32 65 3f
       0.30806527 -0.29251418 0.3821364 0.8953053
000150 26 38 98 bf c1 1f cb be 4a 37 db bf 9d 5e 5b 3e
       -1.1892135 -0.39672664 -1.7126248 0.21422811
000160 2c 2f 87 bf 03 33 ac be d8 35 d1 bf fd cd 31 bf
       -1.0561271 -0.3363267 -1.6344557 -0.6945494
000170 1e f5 82 3f dd dd ef 3f 37 74 aa 3f 67 24 b3 be
       1.0231054 1.8739582 1.3316716 -0.3498871
000180 1f 80 08 3e 84 ab b1 3e b5 93 65 3e d8 ef 92 be
       0.13330124 0.3470117 0.22419627 -0.2869861
000190 a2 45 6a be e8 2b 3f bf 70 72 b3 3e b7 db ef 3e
       -0.22878125 -0.7467637 0.35048246 0.46847317
0001a0 6e f3 6b 3e 46 c3 14 bf c5 f9 0f 3f c4 61 4a 3d
       0.2304208 -0.58110464 0.56240493 0.049409643
0001b0 aa 0a 91 3c 8d fa 9c 3e a0 a9 d0 be 78 65 19 40
       0.01770528 0.30659905 -0.40754414 2.3968182
0001c0 df b6 24 bf e1 0a e5 be 45 f1 7f be 14 95 2b bf
       -0.6434154 -0.44734862 -0.24994381 -0.6702435
0001d0 32 73 6a bf ae 55 cd bf 82 6b a1 bd 4e 0b a0 bf
       -0.91582024 -1.6041772 -0.078818336 -1.250345
0001e0 56 0d 3c 40 a3 e9 e3 bf 96 5d eb 3d 80 b4 fc bf
       2.938314 -1.7805675 0.114924595 -1.9742584
0001f0 6e e9 9f 3f a8 67 6e 3e a2 fa 99 3f 04 ba c4 3f
       1.2493112 0.23281729 1.2029612 1.5369267
000200 e1 af c7 be 12 da aa be 8f e2 cf bf 81 ee 3a bf
       -0.39001372 -0.333695 -1.6241015 -0.7302018
000210 25 a7 3f 40 78 9a 8f 3f 64 7e 95 bf 3e 52 17 bf
       2.9945767 1.1219015 -1.1679196 -0.59109867
000220 b3 cb ae be 14 35 62 3f f0 68 a4 3f bc 4a 56 bf
       -0.34139785 0.8836224 1.2844524 -0.83707786
000230 15 4e 20 c0 68 70 ac 3f 81 57 4d 3f ec ca 2d 3f
       -2.5047657 1.3471804 0.80211645 0.6788776
000240 94 d1 2a bf ef d9 9c bf 59 f1 0a bf 4a 18 91 3f
       -0.6672604 -1.2254008 -0.5427452 1.1335537
000250 3d b4 48 3e 37 61 98 bf 0c 4f 0a c0 18 cb 8a bf
       0.19600005 -1.1904668 -2.1610746 -1.0843229
000260 9b ae 6d bf 9e 5e 5f be ca 78 b9 bf 86 dd f4 bf
       -0.9284455 -0.21813437 -1.4489987 -1.9130104
000270 ec 42 40 bf 29 b1 b3 3f b7 4b 3b 3f a2 83 44 bf
       -0.75102115 1.403844 0.73162407 -0.76763356
000280 1a c8 6c 3d f7 2d e8 3f 04 18 13 bf fe 9a b2 bc
       0.05780802 1.8139027 -0.5745852 -0.021802422
000290 4d 7d 3e 3f df 2b 3b 40 ff 9c 35 3f 5d 17 88 bf
       0.74409944 2.9245527 0.7094268 -1.063213
0002a0 0d 62 22 3f 2f 2b f7 be 01 d9 ed bf 85 16 3e 40
       0.63430864 -0.48275134 -1.8581849 2.9701245
0002b0 61 14 4c 3f 79 42 06 40 04 4b 1c be 01 91 39 c0
       0.79718596 2.0978072 -0.15262991 -2.8994753
0002c0 e7 2d 8b 3e d8 ad 1e 3e f5 c0 30 c0 cd ef 09 3e
       0.27183458 0.15496004 -2.7617772 0.13470383
0002d0 c9 22 18 bf af 77 16 40 ba 51 4d c0 3b b3 ff 3f
       -0.5942808 2.351055 -3.2081132 1.9976572
0002e0 58 a9 e5 3e 85 57 64 bf 9b 96 de 3f 09 58 db bf
       0.44855762 -0.89196044 1.7389711 -1.7136241
0002f0 f9 78 65 be a7 2e 0b 3f 17 f1 26 bf 03 61 55 3f
       -0.22409429 0.5436806 -0.65211624 0.83351153
000300 23 8e 12 40 0f f9 37 40 cf 59 13 bf ad f0 10 bf
       2.2899253 2.8745763 -0.5755891 -0.5661724
000310 60 0f 4c c0 67 c1 16 be c0 af 75 3f bc 36 04 40
       -3.1884384 -0.14722215 0.959713 2.0658407
000320 83 73 32 bf f4 c7 e8 bf 4e fe 76 3e 54 2e 09 40
       -0.69707507 -1.8186021 0.24120447 2.1434526
000330 41 0a 46 bf 92 2e 62 3f 06 3d 4d 3f cc 42 f6 bf
       -0.77359396 0.8835231 0.8017124 -1.9239135
000340 cf 40 97 3f f1 aa b9 bf fd 7c 14 c0 06 bd b9 be
       1.1816653 -1.4505292 -2.3201287 -0.36277026
000350 5f e0 06 3f a1 d4 ae 3f 86 c0 66 bf 29 ff 2e bf
       0.52686113 1.3658639 -0.9013752 -0.68358094
000360 d6 a1 69 3f 41 e0 aa bf b9 43 8a bf 7d 67 02 40
       0.9126257 -1.3349687 -1.0801917 2.0375664
000370 5c ed 87 3f e0 63 fc 3b 99 12 c3 3f b4 52 20 3d
       1.0619311 0.0077023357 1.524005 0.03914137
000380 1a 50 98 bf a6 d3 b2 bf 54 2d 0a c0 c2 24 8e 3f
       -1.1899445 -1.397084 -2.1590166 1.1104968
000390 a3 f0 06 3f 18 56 3b c0 ce 44 6a 3f 73 f7 49 bf
       0.5271093 -2.9271297 0.9151124 -0.788932
0003a0 11 1f 73 bd 49 8c be 3e b3 da df bf ed 86 b0 bf
       -0.0593558 0.37216404 -1.7488617 -1.3791176
0003b0 e3 fa 00 40 17 c6 d8 bf 2b 53 b1 3e ab 22 8f bf
       2.015313 -1.6935452 0.34633765 -1.1182455
0003c0 56 85 27 40 8b 9d 48 3f 75 39 6b bf b7 39 ec 3f
       2.6175132 0.7836539 -0.9188455 1.8455113
0003d0 9a f2 c1 3f 20 c9 8e 3f e9 2b 00 3f 17 24 3e bf
       1.5152161 1.1155128 0.50067 -0.7427382
0003e0 9a 5f 13 bf eb 50 23 3f 81 a2 80 be 1b 75 8a bf
       -0.5756775 0.63795346 -0.2512398 -1.0816988
0003f0 d0 fc 9c bf 87 c2 eb 3f a9 95 ae bf dc f6 19 3f
       -1.2264652 1.841874 -1.3639423 0.601423

weight f4 [128, 175]
000000 9a 7e 53 3d 4f 02 25 bd 2b 01 4a 3d bd 61 29 bd
       0.05163441 -0.040285405 0.04931752 -0.041352976
000010 6f c7 2e bd ac 86 87 3d a9 da 5e 3d 88 53 2b 3d
       -0.042670663 0.066174835 0.05440775 0.04182771
000020 6f 6c 66 bc f5 93 c3 3d 00 86 2f 3d db 70 ef bc
       -0.0140639385 0.09549705 0.0428524 -0.029228618
000030 f3 1c 89 3d f5 f1 d9 bd c8 88 a5 bc 04 d2 60 bd
       0.06694975 -0.10641853 -0.020206824 -0.054887787
000040 43 e2 8a bd be 6f 25 3d 1f 74 d3 3c da 1e eb 3c
       -0.06781437 0.04038977 0.025812207 0.028701235
000050 7c 30 63 3d 2f a0 ab bc 1d c9 0e bd 0f 66 b0 bc
       0.05546616 -0.020950405 -0.034859765 -0.02153304
000060 40 5b ed bb e7 c6 c9 3d d4 cf ae 3d 95 ca 02 bd
       -0.007243544 0.09852391 0.08535734 -0.03193148
000070 2e 94 6f 3d a1 2a f1 bc 79 15 87 3d 07 24 37 3b
       0.058490925 -0.029439272 0.065958925 0.0027945058
000080 92 64 ba 3d 6b b5 d3 bb f0 a2 08 3c 33 d2 76 3d
       0.091012135 -0.0064608357 0.008339629 0.060259055
000090 b9 01 87 3d 76 41 0c bd 6d ec da 3d 6f d4 f4 bc
       0.065921254 -0.034242116 0.10689626 -0.029886452
0000a0 e5 ee 53 3d ad a0 ac bb aa 58 9a bc 7a 61 0c 3d
       0.0517415 -0.0052681775 -0.018841106 0.03427265
0000b0 4c 09 42 bc af 19 2d bd 2a 83 d4 3c f4 07 6e 3d
       -0.011843037 -0.042260822 0.02594145 0.058113053
0000c0 09 b7 8a 3c 1f 6f 9e bc aa 1b d5 3c 51 4c 60 bd
       0.016932981 -0.019340096 0.026014168 -0.05476028
0000d0 9f bd 11 3d d9 6e 38 bd 00 0f 4a bd b6 89 36 3c
       0.035581227 -0.045027588 -0.04933071 0.011141231
0000e0 e5 ae 8b bc d6 61 19 3d 7a 76 2c 3d af 4a 82 3d
       -0.01705117 0.03744682 0.042105176 0.06361901
0000f0 90 cb 90 3d 51 3d dd bb 28 b7 17 3d 8e 4e 10 bd
       0.070700765 -0.0067516943 0.037039906 -0.035231166
000100 81 e5 5b bd 91 83 63 bd 16 6c 39 bd 20 ce e4 3c
       -0.05368567 -0.055545393 -0.045269094 0.02793032
000110 ce 6b 11 bc f0 14 44 bb ce 1e b2 bc 36 5a 4c 3d
       -0.0088758 -0.0029919706 -0.021743204 0.04989072
000120 21 1d 8f bd 32 d5 cc 3c e6 66 5a bd 67 8c 44 3d
       -0.06987978 0.025004003 -0.053320788 0.04798546
000130 ce d8 a0 3c 27 e9 ce 3c 41 81 71 bd 6b ba 62 bd
       0.01963463 0.02525766 -0.058961157 -0.055353563
000140 26 99 75 3d d0 11 d6 3c 9a 3b f0 bc 6d ae 08 3d
       0.059960507 0.02613154 -0.029325295 0.03336947
000150 05 12 fb 3c 01 5d 05 3d 28 2c 68 3d fe e9 92 bb
       0.03064824 0.0325594 0.056682736 -0.0044834604
000160 fc 73 a3 bc 31 40 89 3d 2a 40 1e bd 9b fb 93 bd
       -0.019952767 0.06701697 -0.03863541 -0.07225724
000170 f3 da 7d bd 6e 9e d1 3c 14 97 37 3d 5a 13 03 bd
       -0.061976384 0.02558824 0.044821814 -0.032000877
000180 11 ee 74 3c 45 e9 73 3b 28 9c 6e bd 64 aa 22 bd
       0.014949338 0.0037217897 -0.05825439 -0.03971328
000190 de 16 65 bd ba a8 1b bd 98 1f f5 bc ec 07 8d 3d
       -0.05593001 -0.038002707 -0.029922292 0.068862766
0001a0 19 f1 bd 3c 89 59 1d 3d 00 68 69 3b 53 93 9c bc
       0.023186253 0.038415466 0.0035614967 -0.019113218
0001b0 ed c8 32 bd 4a 5b 09 bd 02 12 05 3d 71 93 60 3c
       -0.04364865 -0.033534326 0.032487877 0.013707028
0001c0 65 fd 5b bd 30 bf be 3c 7d 61 dd bc d2 88 07 3c
       -0.053708453 0.023284525 -0.027024025 0.008272367
0001d0 75 f9 4a bd ef 96 59 3d 26 1c 25 3d 73 e3 f1 3b
       -0.049554307 0.053122457 0.040310048 0.0073818504
0001e0 0d 87 3f bd 06 f2 d6 3c 40 4a 08 3d 25 49 47 3d
       -0.046759654 0.026238453 0.033273935 0.04865374
0001f0 ff c9 c1 3c ad 69 80 bc 49 79 0e 3c 7e d3 43 3d
       0.02365589 -0.01567539 0.008695909 0.047809117
000200 10 a9 0a 3c 15 79 cd 3a 9a 00 90 bd ba 81 f6 bc
       0.008463159 0.0015676344 -0.07031365 -0.030091155
000210 2d eb 44 bc 72 73 1b bd 54 d1 a3 bd ed 9f 57 3d
       -0.012018961 -0.037951894 -0.079989105 0.05264275
000220 e8 a9 9a bc e0 be 8a bd eb ae 9b bd 80 61 6c 3d
       -0.018879846 -0.06774688 -0.07601722 0.05771017
000230 e3 41 b2 bc 7f 9e 0c bd fe 5b 39 bc 0b 65 af 3c
       -0.021759933 -0.03433084 -0.011313437 0.021410486
000240 98 bf 47 bd cc 96 0b bd 12 d6 75 bd 97 bd ab bb
       -0.048766702 -0.034079358 -0.060018606 -0.0052411067
000250 31 35 78 bd ec 62 57 3d 13 4d 02 3d 2e f4 32 3d
       -0.060597602 0.052584574 0.031811785 0.0436899
000260 88 40 28 3d 73 c0 8e 3d 2c b3 18 bc 71 a4 18 3d
       0.041077167 0.069703005 -0.009320062 0.0372662
000270 76 eb 78 3d 70 1c 53 3d de 43 a3 3c 81 0e 32 bd
       0.060771428 0.051540792 0.019929823 -0.043470863
000280 e9 32 39 3c 2f d8 0d 3d d1 56 7a bc 01 12 d0 3c
       0.011303642 0.034629997 -0.015279488 0.02539921
000290 dd 8e 83 3d 0d d3 01 3d 8b da 24 3d a6 de af bd
       0.064237334 0.031695414 0.04024748 -0.08587389
0002a0 e7 65 96 3d 80 7e a1 3c 90 38 64 3d 8b 9f 1c 3c
       0.07343655 0.01971364 0.055718005 0.009559522
0002b0 85 5b 3d 3d 72 12 1f 3d ee 1f 1b 3d a0 5f 0e bb
       0.046229858 0.03883595 0.037872247 -0.0021724477
0002c0 53 f8 16 bc 36 da f7 ba 50 9a 9f 3b ec 04 3c bd
       -0.009214479 -0.0018909636 0.0048706904 -0.04590313
0002d0 56 32 12 bd ca c3 66 bd 37 6c 86 bc 81 88 9d bc
       -0.035692535 -0.056339063 -0.016409023 -0.01923013
0002e0 6b 97 bc bc 0b f9 ce bc 9a e7 07 3a 9e fd 3c bc
       -0.02302142 -0.025265237 0.00051843526 -0.011535076
0002f0 cc 60 dd bb bb 45 4a 3c 5e fd 81 3c 5d df a3 3c
       -0.006755924 0.012345727 0.015867885 0.020003969
000300 94 fc 35 3c 43 e8 4f 3c 1d 87 f7 b9 74 d7 02 b9
       0.011107583 0.012689653 -0.00047212178 -0.00012478029
000310 a8 1c 92 3a 42 60 9d 3b 12 56 79 3b 12 3b 17 bc
       0.0011147456 0.0048027346 0.0038045687 -0.009230392
000320 9a 94 12 3b 4a 03 37 bc 0a 2b 95 bb c9 9d 61 bb
       0.0022366405 -0.011170218 -0.00455225 -0.0034426323
000330 64 4a 3f 3b 07 99 58 bc 9d 4b d4 bb b7 81 6a 3c
       0.0029188627 -0.013220078 -0.0064787404 0.014313153
000340 5a e0 84 3b 01 5a bc bb 5f 3e dc ba 26 b6 ec bb
       0.004055065 -0.005748034 -0.0016803256 -0.007223862
000350 23 f4 ad 3b 9f f3 2d bc 36 4d 64 bc 84 46 d7 bc
       0.0053086444 -0.010617166 -0.013934424 -0.026278742
000360 0f 6a 66 3b 7e 63 ca 3a 4e d1 3d bb f5 73 f3 3a
       0.003515843 0.0015441028 -0.0028963867 0.0018573987
000370 5d 29 33 3b d6 23 91 3d 41 2b 0f 3e f5 d9 35 be
       0.0027337887 0.07086913 0.13981344 -0.17758925
000380 21 bf 00 3f e9 e9 95 3f d8 f2 ec 3e 3a da 73 3e
       0.5029164 1.1712009 0.46279025 0.23813716
000390 36 d3 29 bf 4c d9 cc be 32 ad 20 be 6a 49 9b bc
       -0.6633791 -0.40009534 -0.15691069 -0.018955905
0003a0 54 52 ec bd 23 85 94 bf c9 2c 26 bf 68 05 33 3f
       -0.1153914 -1.160313 -0.64912087 0.69930124
0003b0 e6 5d 90 3e e2 3c 0c bf 9b 91 9f 3f 53 ec a7 bf
       0.2819664 -0.547804 1.246631 -1.3118995
0003c0 0f 5e 8b be 43 b0 98 3f 8c f4 a7 be 29 b9 a3 bf
       -0.272202 1.1928791 -0.32803762 -1.2790881
0003d0 bc 3f a7 be b9 d2 a3 3f 91 e7 af bd f0 04 a9 3e
       -0.32665813 1.2798682 -0.0858909 0.3301158
0003e0 2e 2c 09 bf ce e1 62 bf a0 ce 83 3f c1 e8 33 3f
       -0.5358304 -0.886258 1.0297432 0.7027703
0003f0 02 2c e6 3e 39 f4 9a bf 00 e2 07 bf 90 0f a1 3f
       0.4495545 -1.2105781 -0.53079224 1.2582874

bias f4 [128]
000000 c2 ee 0e bd 5f 7b ab 3b 99 62 34 3e 2b f3 0a 3e
       -0.034895666 0.005233213 0.17615737 0.13569324
000010 8f 17 fa bd bf da 57 3e bd 86 99 3c 36 a5 91 bc
       -0.12211525 0.21079539 0.018741006 -0.017778974
000020 19 56 aa bc c7 5a db 3d 21 b3 24 3d 3f 57 44 3d
       -0.020793008 0.10710674 0.040209893 0.047934767
000030 fb 3f a1 3c 8d 48 af 3e 8a a3 10 bc 50 3a 7f 3e
       0.019683829 0.3423504 -0.008828053 0.24924588
000040 09 2b 14 bb b1 94 9b 3e f9 2c 9f bc 29 98 33 3d
       -0.0022608659 0.3038688 -0.019430624 0.043846283
000050 8e 9e 91 3e c3 3b f8 3b 65 e6 2d bd f6 df 40 3e
       0.2844128 0.0075754835 -0.04245605 0.18835434
000060 20 39 b9 3c 7f 36 ac 3d 0f eb 5b 3e 7e 1d db bc
       0.022610247 0.08408832 0.21476386 -0.026747461
000070 a3 9d f5 3d 6c 20 81 3e bd 2d ed 3d ce e6 00 be
       0.119929574 0.25220048 0.115809895 -0.12588045
000080 9e 7d 45 3c ab c2 0a bd 23 53 38 bd 04 ef 74 bc
       0.012053875 -0.033877056 -0.04500116 -0.014949564
000090 2b de ac bd 35 da 0b bc 34 34 19 3c e9 74 53 3e
       -0.08440813 -0.008535911 0.009350825 0.20650066
0000a0 5c fe 0c 3f 25 1a 97 3c 23 e9 c3 bd da 09 17 bd
       0.5507562 0.018445084 -0.09565952 -0.03687463
0000b0 26 e1 a7 bd cd 01 3c 3e 5c 1c 95 3d 19 55 ff bd
       -0.081972405 0.18360062 0.072808 -0.12467403
0000c0 6a c9 c6 3b 5f de b3 3b 69 f9 cd 3e c1 84 bf bd
       0.006066491 0.005489155 0.40229347 -0.09351493
0000d0 14 ab 90 bd e7 57 3b 3e c4 8a 97 bd 2a b4 10 3d
       -0.070638806 0.18295251 -0.07399514 0.035328068
0000e0 fc 95 5a bd 95 12 5e 3e ff 6e a8 bd 05 7c 94 bd
       -0.053365692 0.21686776 -0.08224296 -0.07250217
0000f0 d8 8b 01 ba e8 c3 9a bd fe 6e 81 bd 24 29 c7 3d
       -0.0004941798 -0.075568974 -0.06319998 0.09724644
000100 d6 fa 08 3d c6 9a 3c bd 3a db 71 3e 01 3e a2 bc
       0.03344234 -0.04604604 0.23618785 -0.019804956
000110 03 05 fd bc 11 75 9b bd e0 34 43 bd b4 00 7c bd
       -0.030886179 -0.07590688 -0.047657847 -0.061524108
000120 44 5e 54 bd 2a c5 36 3c dd 8d 21 3d e8 e6 28 bd
       -0.05184771 0.011155406 0.039441932 -0.041235834
000130 ae 38 96 3e 30 ac d2 3c a5 24 92 3d b4 d7 de bd
       0.29340118 0.025716871 0.07135896 -0.10880986
000140 e2 e2 85 bd 0d 32 9c bd d2 40 18 3e 4b 2c a8 3c
       -0.06537415 -0.07626734 0.14868477 0.020528933
000150 e4 93 3b bd d1 53 1a bd 65 86 13 3c bd fe 8a 3e
       -0.045795336 -0.03767759 0.00900421 0.27147475
000160 24 a9 06 bd db ce c7 bd ec a0 b7 3e 83 aa 7f 3e
       -0.03287615 -0.097562514 0.3586496 0.24967389
000170 f4 8b 9c 3e 31 2a b8 bd 4c 3c c9 bd a7 90 e2 3b
       0.30575526 -0.08992422 -0.09825954 0.0069142166
000180 11 ea 4f 3d 29 f0 b8 3c 34 70 86 b9 4c 6a 11 be
       0.050760332 0.022575455 -0.0002564207 -0.14200705
000190 00 b3 a6 3d 5b f6 e8 3d 19 41 5a bd 8f 59 b7 bc
       0.0813961 0.113751136 -0.05328474 -0.022381572
0001a0 78 aa b9 3e ed 51 92 bd 27 a4 bd bd c7 02 b2 bd
       0.3626287 -0.07144532 -0.09259825 -0.08691936
0001b0 20 aa 5a bd 1a 10 d5 bc c8 63 1e 3c 90 39 a2 3d
       -0.0533849 -0.026008654 0.009667344 0.079211354
0001c0 ae 85 7f 3d 47 4a 67 bd 65 6c ce bc d5 3f 4d 3e
       0.062383346 -0.05646732 -0.02519817 0.20043881
0001d0 35 23 2f bd 87 b0 37 3c 27 c8 90 3e b0 f0 2c bd
       -0.042758185 0.011211521 0.28277704 -0.042221725
0001e0 7c 7e 05 3e ad 30 b4 3d b8 d1 16 be e5 49 8c bd
       0.13036531 0.08798347 -0.14728439 -0.06850032
0001f0 2a c9 76 bc 8b 8b 7a 3d 10 7b 64 be b5 68 89 bc
       -0.01506261 0.061168235 -0.2231257 -0.016773561

weight f4 [128, 128]
000000 bd 4d 6b bd cb ab 26 3d eb e9 d4 3c 24 49 2a 3d
       -0.057447184 0.04069118 0.025990447 0.04157366
000010 00 c0 59 bd 17 91 10 3c e9 ea 8e 3d 57 c1 5b 3b
       -0.05316162 0.008823655 0.06978399 0.0033531988
000020 80 b1 35 3d ed f5 85 3c 56 12 3d 3d 95 36 15 bd
       0.04435873 0.016352618 0.046160065 -0.036429007
000030 91 ba 3e bd b8 0e b7 bd eb 31 1a 3c 3b 33 3f bd
       -0.046564642 -0.08938354 0.009411315 -0.046679717
000040 4a 1a 5f bd 23 cf a9 bc 65 1e 3e bd f2 a9 23 3d
       -0.05446843 -0.020728653 -0.046415705 0.039956994
000050 9f a5 a6 bc 31 2c 3a bd 84 01 22 3d 13 38 3e ba
       -0.020342646 -0.0454523 0.039552227 -0.00072562805
000060 ba 29 fd b9 6d 17 ce bd e9 e6 46 3d 81 f2 4a bd
       -0.0004828701 -0.10063062 0.048560057 -0.049547676
000070 4e a0 d0 bc 91 78 c3 bd 2f ed b9 bd 8b 69 6c 3c
       -0.025467064 -0.095444806 -0.09078442 0.01442946
000080 7d 57 9c bc 6b bc d1 bb 09 02 3a bd 1e 86 0c bd
       -0.019084686 -0.006400635 -0.045412097 -0.03430759
000090 a5 9a 90 3d 72 e0 74 bc 60 42 3f bd 74 61 e1 bd
       0.07060746 -0.01494609 -0.04669416 -0.11004916
0000a0 79 e8 08 3c 20 a0 cb 3c bd 0d 74 bd 6e 48 81 3c
       0.008356207 0.024856627 -0.059583414 0.015781607
0000b0 69 29 45 3d 3f 01 34 3d ab 3e ee b9 9b 7d 9b 3d
       0.048135195 0.0439465 -0.0004544159 0.07592317
0000c0 0e c4 ac bd eb b8 a6 bd eb d7 89 bd ce 2b 97 3d
       -0.08435832 -0.08140739 -0.06730636 0.07381402
0000d0 62 eb 62 bc d7 be 09 bd 56 bf 8f bd d8 fe 52 bd
       -0.013850065 -0.033629265 -0.07018916 -0.05151257
0000e0 f3 5c 1b 3d fd 4f 98 bd b9 28 5f bc 74 a0 25 3d
       0.03793044 -0.074371316 -0.013620549 0.040436223
0000f0 5c ae 7b 3c 2d 5b a8 3d 3e a8 3e bd a1 a4 2c bd
       0.015361395 0.082205154 -0.046547167 -0.04214919
000100 3f 21 fd bc 21 43 16 3d 13 04 e6 bd cb 78 6b bb
       -0.030899642 0.036685113 -0.11231246 -0.0035930153
000110 41 1b 48 3d 61 a7 30 bc 43 66 e0 bc bf f9 a1 bc
       0.048854116 -0.010782094 -0.027392512 -0.019772409
000120 da d8 9e 3d d3 b4 5e 3b bb 39 89 3d d8 b9 c7 3c
       0.07756205 0.0033982291 0.06700464 0.02438061
000130 0a df b3 bd 01 97 87 bd af 26 ae bd 81 ad dd bc
       -0.08782776 -0.066205986 -0.08503472 -0.027060272
000140 6b 14 7a bd 97 5b 7a 3d ab ff b6 bd 69 b9 f1 3c
       -0.06105463 0.061122503 -0.089354835 0.029507356
000150 75 1d 7d 3c a2 4f a0 3b 18 25 50 bd 3a 9e 97 3d
       0.015448918 0.0048923055 -0.050816625 0.07403226
000160 9b f9 77 bd 62 54 a6 bc 03 ba 9a bd 33 ab 1e 3d
       -0.060540777 -0.020303909 -0.0755501 0.038737487
000170 ca 89 10 bd 4f 29 88 3d f6 b2 4e bd a5 dc 8b 3d
       -0.035287656 0.06648504 -0.05046364 0.06829194
000180 1e 63 bd 3d 57 20 35 bd 95 af 00 3d 81 ab 76 bd
       0.09247421 -0.044220295 0.031417448 -0.060222153
000190 bc c7 4f bd 5a 72 33 3d ee 42 5a 3d 5d aa a8 3d
       -0.05072759 0.043810226 0.053286485 0.08235619
0001a0 4e 24 2c bd 53 33 d9 bc e7 c2 8f bd 62 f5 a3 3d
       -0.04202681 -0.026513731 -0.070195965 0.080057874
0001b0 2c 34 d3 bc 5f 1a 98 3d c0 30 81 3b 99 8b b5 3c
       -0.025781713 0.07426905 0.003942579 0.022161292
0001c0 c9 5f 33 3d b3 16 6e bd b2 d0 2e bd b8 e4 18 be
       0.04379252 -0.058127116 -0.042679496 -0.14931
0001d0 74 e5 42 3d d7 dd 1b 3d 17 2d a6 bc 26 6e 5e bd
       0.047582105 0.03805336 -0.020285172 -0.054304264
0001e0 b8 78 a9 3d 9a 31 e5 bc 8f 02 aa bd 40 c0 f7 bc
       0.082749784 -0.027977753 -0.08301269 -0.03024304
0001f0 de 50 03 3c 44 f3 66 bd b3 b7 aa 3d c2 a2 1f 3d
       0.008014886 -0.05638434 0.08335819 0.038973577
000200 5f ab a0 3e ef e4 a8 bc 3c 3d 1f be 1d 8b c6 bc
       0.31380746 -0.020616977 -0.15550703 -0.024236256
000210 a9 dc 0e 3d 11 26 ec 3d e1 c7 b2 3e b1 ae b0 3e
       0.034878407 0.11530698 0.3491812 0.3450828
000220 cf 3a a8 3e ac 2d 8c bc 0e 3d 0d 3e 2a cc e1 3d
       0.32857367 -0.017111622 0.13792822 0.11025269
000230 0f 7b bf 3e 84 55 aa 3c 03 5c d8 3e cd 71 ff bd
       0.37398574 0.02079273 0.422577 -0.12472878
000240 ed 49 f1 3e f2 d6 04 3e 7b bc a6 3e 27 1a da 3e
       0.47126713 0.1297262 0.32565674 0.42598078
000250 d4 43 d6 bc 87 95 9a 3e 15 a5 d6 3e f0 06 85 bd
       -0.02615539 0.30192205 0.41922823 -0.06495464
000260 5f 04 c5 3e 31 36 a5 bd a7 f7 29 3e 08 12 b2 3e
       0.38479897 -0.08066977 0.16598378 0.34779382
000270 f1 79 66 3d 8d ac 27 3c 48 ba 07 be 77 18 c4 3e
       0.056268636 0.01023401 -0.13254654 0.38299915
000280 11 a5 b2 3e d9 37 a3 3e f1 c3 d2 3e dd ae c3 3e
       0.3489156 0.31878546 0.41165116 0.38219348
000290 db aa b6 3e 57 31 d4 3e 57 f2 5d 3c c3 4a f3 3d
       0.35677227 0.41443893 0.013546548 0.11879494
0002a0 87 80 d9 bd 07 47 ca 3e 95 d7 33 3e c3 ca 9d 3e
       -0.10620218 0.39507315 0.17562707 0.30818757
0002b0 d7 32 cd 3e c0 b2 e4 3d 48 ca d0 be f5 56 83 3d
       0.4007785 0.11166906 -0.40779328 0.0641307
0002c0 ac 29 c8 3e ed 8f e8 3e 4e 8f 95 be 3f c9 ea 3e
       0.39094293 0.45422307 -0.29210895 0.45856664
0002d0 f7 dd bd 3e d1 45 6a bd 4d df 41 3d 0e 3f 89 3e
       0.37083408 -0.05719549 0.047332097 0.2680592
0002e0 61 ed ab 3e 59 e4 0c 3d 63 d7 c2 3e d1 1c d4 3e
       0.33579543 0.034397457 0.38054952 0.41428235
0002f0 09 9c 1d 3e 79 24 b0 3e 71 e6 e7 3e 21 dc 6a be
       0.15391554 0.34402826 0.45293 -0.22935535
000300 8f b6 dd 3e f7 26 bc 3e 56 2c 61 be 49 bf c3 3e
       0.43303344 0.36748478 -0.21989569 0.38231876
000310 47 7e 93 3e 7d fb a9 3e 3f 2f 13 3e 27 36 e3 3e
       0.2880728 0.33199683 0.14373492 0.44377252
000320 8b 76 c7 3e ed 07 b7 3e f5 e0 da 3e 79 9f d1 3e
       0.3895763 0.35748234 0.42749754 0.4094198
000330 92 c7 6e 3e 8f 1e db 3e fc a2 99 3e 65 61 a4 3e
       0.23318318 0.42796752 0.3000716 0.32105556
000340 31 58 dd 3e 35 7f cc 3e 3b 94 5c be f9 f1 9f 3e
       0.43231347 0.399408 -0.2154092 0.31239298
000350 39 86 8f 3e 69 f0 a0 3e 1d 52 bf 3e 8c f5 11 3e
       0.2803209 0.31433418 0.37367335 0.14253825
000360 2b 83 ad 3e a9 bc ed 3e 23 da 0b 3e 66 e4 ec 3d
       0.33889136 0.46433 0.13657431 0.11567001
000370 56 d9 b8 bd 99 34 c6 3e 75 ab dc 3e bd 52 ab 3e
       -0.090258285 0.38712004 0.4309956 0.33461562
000380 2d 0c 99 3e 69 48 d7 3e bf 2e e7 3e 87 a4 0c bc
       0.29892102 0.42047432 0.45152852 -0.008584148
000390 b1 19 76 3e 98 01 05 3d 1e 02 b7 3e 3f e7 ab 3e
       0.24033238 0.032472223 0.35743803 0.33574864
0003a0 14 b6 63 3e a1 38 b4 3e 45 a3 a6 3e ab d6 aa 3e
       0.22237426 0.35199454 0.3254644 0.33366904
0003b0 59 b9 ed 3d 5b cd d3 3e d1 aa cc 3e 24 61 64 bd
       0.11607618 0.4136761 0.39974073 -0.055756703
0003c0 3c d3 3a bd c5 bb ca 3e b1 79 e1 3e f0 98 91 be
       -0.045611605 0.39596382 0.44038156 -0.28436995
0003d0 1f 38 d7 3e 95 7e a8 3e db 79 e2 3d 29 ee b8 3e
       0.42035004 0.32909074 0.11058398 0.36119202
0003e0 9e 52 04 3e 85 23 04 3e 1e c7 cd bb 05 42 f1 3e
       0.12922141 0.12904175 -0.00627984 0.4712068
0003f0 6f 79 a9 3e 5f ae 57 3d f7 03 48 3d df cf c4 3e
       0.3310046 0.052656528 0.048831906 0.38439843

bias f4 [128]
000000 a3 40 76 bc 10 2c b3 be ca 01 c8 bb a8 dc 0d 3e
       -0.015030059 -0.34994555 -0.006103729 0.13853705
000010 db 89 7e 3e 7f 72 b9 3e 7b 7c 35 bd 1d 67 0b be
       0.24857275 0.36220166 -0.044308167 -0.13613553
000020 f5 45 3c be 33 4d cb 3d bc 1d c2 bd db a3 d8 bd
       -0.18386061 0.09926834 -0.09478328 -0.10578128
000030 f0 fa c4 bd 9a 32 7d bc e7 be 19 bd 9e 54 19 be
       -0.09618175 -0.015453959 -0.037535574 -0.14973685
000040 ba 7b b9 3b d1 8a ad be 6c 6f 92 3e 4c be 7f bc
       0.0056605013 -0.3389497 0.28600633 -0.015609335
000050 0e f0 e3 bd 2f 23 9d be 05 eb 8c 3e 59 11 c3 be
       -0.11129771 -0.30690905 0.27523056 -0.38099173
000060 c1 ae b6 3c 5d 64 d4 bd 78 8f 95 3d af f7 ce ba
       0.022300126 -0.10370705 0.07302755 -0.0015790368
000070 71 c9 ec bc fd 36 04 3e 84 85 a3 be 8b ec a4 bd
       -0.028904648 0.12911601 -0.31937802 -0.080529295
000080 a6 87 0f be 47 b4 1f 3d 9d 39 b1 3d 4e 65 c5 bc
       -0.1401659 0.038990285 0.08653567 -0.024096157
000090 04 ff e9 3c cf e0 8c bd 58 36 50 3e bb f6 e3 3c
       0.028563984 -0.06878816 0.2033323 0.027827611
0000a0 31 a1 80 bc 32 c3 12 bd 09 06 9e bc 48 b8 81 bc
       -0.015701862 -0.035830684 -0.019289987 -0.015834942
0000b0 6b 46 77 bd 02 a3 8f bd 4d 3e d5 be 69 71 8b bd
       -0.06036989 -0.07013513 -0.41649094 -0.06808741
0000c0 60 ac ba 3c d8 a7 3f bd 9e 1e 15 3e b6 99 1c 3e
       0.022787273 -0.046790928 0.14562461 0.15293011
0000d0 c1 a2 90 bc 86 55 b9 3c 96 25 3c bd bb ef 28 3e
       -0.017655732 0.022623789 -0.045934282 0.164977
0000e0 49 c8 0d 3e e0 c1 87 3e df 3f 93 3d 6c f3 14 bd
       0.13845934 0.26515102 0.07189917 -0.036364958
0000f0 62 2d 18 bd a7 20 83 bd 89 30 93 bc ab 28 2b 3d
       -0.037152655 -0.06402712 -0.01796748 0.04178683
000100 2d 87 36 bc 34 2d aa bd e1 1f 8a bc 20 76 6c 3e
       -0.011140627 -0.08309403 -0.016860904 0.23091936
000110 a5 d7 09 3d 07 47 f9 3c 5d b6 80 be 85 3a b0 bd
       0.03365292 0.030429376 -0.25139132 -0.08604912
000120 37 d3 0d 3e c7 28 6a 3d d9 d5 47 3e 26 94 37 bc
       0.13850103 0.057167795 0.1951517 -0.011204755
000130 b0 13 23 be be 87 aa bd 2c be c0 be 77 48 1c be
       -0.15925479 -0.08326672 -0.3764509 -0.15262018
000140 6b 39 98 3e a9 aa 15 3e f5 20 a7 3e 54 1b f2 bd
       0.29731306 0.14615883 0.32642332 -0.11821619
000150 e5 88 b6 3d 07 24 62 be 7c 3e cf bb d9 b1 a7 3d
       0.08912829 -0.22084056 -0.0063245874 0.081882186
000160 41 ff f4 bb c2 95 04 be 54 c6 38 3e 59 52 bd 3e
       -0.0074767177 -0.12947753 0.18044406 0.3697689
000170 d1 81 b2 3e fc 71 0b 3e 53 45 c6 bd 4f f6 39 bd
       0.34864667 0.136177 -0.09681191 -0.045400914
000180 86 42 8c 3e 96 10 16 3d c4 e0 fd 3d 5a f7 5c 3d
       0.27394503 0.03663691 0.12396386 0.05394683
000190 5a 5a 72 bc 44 d7 59 bd 58 bb bf bd 1d 6b 50 bd
       -0.014792049 -0.05318381 -0.09361905 -0.0508834
0001a0 d5 aa 0c bf bd 9c 41 bd b8 de 69 bd 3a c8 1f 3e
       -0.5494817 -0.047268618 -0.057097167 0.15603724
0001b0 7d 5c c0 bc e2 e6 64 3d 17 6e 36 bd 5d f0 d1 3d
       -0.023481602 0.05588425 -0.044538584 0.10250924
0001c0 99 8a 3e 3d 31 f8 9c 3e e5 4c df 3c d5 15 94 be
       0.046518896 0.30658105 0.027258346 -0.28922907
0001d0 3b 5d 3a bd da 2a 1c be 1d 81 f7 3b 7d c1 3c 3e
       -0.045499068 -0.15250722 0.0075532333 0.18433185
0001e0 54 74 e7 3c ef 87 d7 3d 38 d5 8b 3c bd e1 5a 3d
       0.028253712 0.10523974 0.017069444 0.053437937
0001f0 29 ab 0e 3d 7b 5b ce 3d dc 31 97 3e 45 06 cb 3d
       0.0348312 0.10076042 0.29530227 0.09913305

weight f4 [128, 128]
000000 6f 2c 12 3e 2b 43 78 3d 32 40 c7 3c 8e 5c 32 3d
       0.14274763 0.06061093 0.024322603 0.0435453
000010 c5 6b aa bd f0 4f e8 bd 15 41 0e 3e 26 eb 51 3c
       -0.08321337 -0.11343372 0.13892014 0.012812411
000020 24 78 95 3d 28 d4 85 bd 54 0c 28 3e 1c 46 ae 3d
       0.07298306 -0.06534606 0.16410953 0.08509466
000030 69 e0 c8 3c d5 b5 2c 3e c1 c7 34 bc 30 f6 08 3d
       0.02452107 0.16866238 -0.011033953 0.033437908
000040 20 db d2 bd 85 18 2e 3d ed 85 b2 bd 5a 71 e8 3c
       -0.10295701 0.042503852 -0.087169506 0.028374363
000050 88 ed 13 3e d8 3c ec bc fc 9c a5 bd 12 4e 44 3d
       0.1444608 -0.028837606 -0.08086583 0.047926016
000060 19 17 82 bc 79 68 22 3e fc b9 e4 bd 32 8c 36 3c
       -0.015880154 0.15860166 -0.11168286 0.011141824
000070 f9 35 86 bd ce 9b 1a bd 81 02 59 3d 31 17 7b 3d
       -0.06553263 -0.037746243 0.052980904 0.061301414
000080 ea d6 9c 3d 73 1e 26 3e b3 76 c1 3d d7 b7 f8 3d
       0.07658179 0.16222553 0.09446468 0.1214444
000090 a1 2c 85 3d 7b ac d5 3d 7b ef fb bd 08 b5 22 3e
       0.06502653 0.10433289 -0.12301537 0.1588937
0000a0 f6 b9 ac 3c 96 c9 e9 3d b5 14 db 3c 04 a4 e0 bd
       0.021084767 0.114154026 0.026743272 -0.109687835
0000b0 fd 33 4d bc d3 3f ba 3d 9d 36 86 bd 4f 51 40 3c
       -0.012524602 0.09094205 -0.065533854 0.0117381355
0000c0 98 bf 2c 3e a8 3e e4 3c 23 59 2a bd 0a 44 e1 3c
       0.16869962 0.027861908 -0.041588914 0.027498264
0000d0 ec ff 08 3d 30 f6 84 3d f0 d4 c9 3d a5 06 95 bc
       0.03344719 0.06492269 0.09855068 -0.018191645
0000e0 3c 11 a7 bc 05 b8 86 bd 13 47 aa 3b ce 8e f3 bc
       -0.02039396 -0.06578068 0.005196461 -0.02973118
0000f0 4f c1 88 bd 00 27 09 be e1 29 82 3d ce 7e ae bc
       -0.06677496 -0.13393784 0.06355644 -0.0213007
000100 dc 6e df 3c 2d 51 ed 3d 04 48 49 bd be 5d a4 3c
       0.027274542 0.11587749 -0.049140945 0.020064231
000110 b8 d9 82 bd 78 93 cd bd 44 29 0e 3c 77 24 8c 3d
       -0.06389183 -0.10037893 0.008676831 0.068428926
000120 c5 59 55 3b 6b fa 0c 3e 7c 54 47 bd 03 2f de 3d
       0.0032554728 0.13767402 -0.048664555 0.108488105
000130 fa dd 8d bd a1 52 b4 bd 63 e6 bd 3d 85 f0 6b 3d
       -0.06927104 -0.08804823 0.092724584 0.057602424
000140 0c bf b7 bd f8 18 b5 bd df 05 ff bc 8e ad 92 3d
       -0.08971986 -0.08842653 -0.03113073 0.07162009
000150 7e 6b 75 bd 3f 33 03 bd b5 3b 96 bc c3 ef 23 3d
       -0.059916966 -0.032031294 -0.018339017 0.040023576
000160 da a3 83 3d 81 48 e1 ba cb 58 b4 bd 26 23 07 bd
       0.064277366 -0.0017187746 -0.088059984 -0.032992505
000170 17 2d 77 bd 43 e4 78 bd 4c 0d 92 3c 6f 02 e6 3d
       -0.060345735 -0.060764562 0.017828606 0.11230933
000180 6e 1f 48 bd b5 0b a7 bd 28 c1 97 bd 72 e6 60 bc
       -0.0488581 -0.0815653 -0.074098885 -0.013726817
000190 ff 21 f5 3d 83 f4 a4 3c 7d 10 fe 3d f9 06 0e 3e
       0.11969375 0.020136124 0.12405489 0.13869847
0001a0 4a 61 10 bb a0 98 e5 bd 0b 0a 22 3e c8 49 83 bd
       -0.0022030645 -0.112107515 0.15824144 -0.06410557
0001b0 67 4c 22 3d f1 51 1c be a6 3c 93 bc 45 88 0e 3c
       0.039623644 -0.15265633 -0.017973255 0.008699481
0001c0 80 83 57 bd c2 41 0b be c1 b1 e8 3c b0 92 9e bd
       -0.052615643 -0.13599303 0.028405072 -0.07742822
0001d0 b1 98 e9 3d b5 58 be 3b a3 1c e5 3d e3 19 8d bc
       0.11406077 0.0058089145 0.11187103 -0.017224258
0001e0 a6 b2 c5 3c fa 72 cd bd 81 11 cc 3d 1e 43 85 3d
       0.024133038 -0.10031696 0.09964276 0.06506942
0001f0 6e 76 0a 3e 1d 8c f7 bc 32 fc e4 bc 59 2f b0 3d
       0.1352174 -0.030218178 -0.027952287 0.08602781
000200 b6 98 f4 bc 60 7a 7a bd 1f fe d9 3b 3a 7d 14 c0
       -0.029857974 -0.061151862 0.006652608 -2.3201432
000210 99 b7 e9 bb 84 30 48 3e 4e bf 56 3c 6d 1f 67 be
       -0.0071324822 0.19549757 0.013107134 -0.22570582
000220 4b 3f 23 bc 91 39 49 3c dc 55 97 bd e8 00 a8 bd
       -0.009963821 0.012281791 -0.07389423 -0.08203298
000230 22 97 ad bd c0 6e b5 bd 2b 54 9a 3e f2 81 28 bc
       -0.08476092 -0.088590145 0.3014234 -0.010284888
000240 c2 c8 99 bf fb fb 09 be ff 3d 31 be 6c b1 63 bd
       -1.2014391 -0.13475029 -0.17308806 -0.055589125
000250 f6 d9 e8 3c 60 a2 80 be 05 b2 54 3e 28 7c 14 3d
       0.028424244 -0.25123882 0.20771034 0.036251217
000260 a7 27 93 3d b0 fc eb bd f5 2b 29 3d d1 f0 b8 3c
       0.071852975 -0.11522806 0.041301686 0.022575768
000270 06 1d b6 3e f9 0f f2 bf e5 05 50 be c2 51 5d bc
       0.35569018 -1.8911124 -0.20314749 -0.013508262
000280 88 e3 96 3d 20 31 cc 3c e6 fc 9f be 00 b1 3b 3d
       0.07367617 0.024925768 -0.31247634 0.045823097
000290 42 02 cb bc 34 2e 4e bb a3 08 71 3c 96 b6 b6 bc
       -0.02478135 -0.0031460645 0.014711532 -0.02230386
0002a0 7f b3 5d be 86 77 73 bd 70 5b 9f bd f8 dd 73 bf
       -0.21650504 -0.05944016 -0.07781112 -0.9526057
0002b0 db 50 1e 3e e4 67 f5 bd 2a 4c b4 bd 0c 53 ca bd
       0.15460531 -0.11982706 -0.0880359 -0.09879121
0002c0 42 b2 6b 3d 2f aa 08 3e 68 61 c1 bf 22 65 e6 3d
       0.057543047 0.1334617 -1.5107851 0.11249758
0002d0 6f 6a 96 3e 24 ad f7 3c 4c f8 67 bd 9c 80 02 be
       0.29378077 0.030233927 -0.05663328 -0.12744373
0002e0 c2 00 65 3d f5 e5 da bc 21 c5 b1 be ea b8 17 bf
       0.055908926 -0.02672098 -0.3472071 -0.5926653
0002f0 56 bb f1 bd ba 15 09 bf 18 b4 5c 3e 75 4b e7 3e
       -0.118033096 -0.5354878 0.21553075 0.45174757
000300 f6 6d 8f bc 68 53 2a bd e7 8e 21 be b0 97 09 bf
       -0.017508488 -0.04158345 -0.15777169 -0.5374708
000310 54 4f ea 3e f8 67 23 bf c5 4e 24 bf 12 0f c2 3c
       0.45763648 -0.6383052 -0.6418269 0.023688827
000320 8a f1 14 c0 e4 26 f4 bd 8c 56 65 3d 87 48 6b 3e
       -2.3272424 -0.1192148 0.05599074 0.22976886
000330 1e bf 07 bf 4a 9b 73 3e e8 07 76 bd 76 33 59 bd
       -0.53025997 0.23789707 -0.060066134 -0.053027593
000340 c4 cb 99 3b e3 de 6e bf 94 59 f1 3d 7a ee d2 bd
       0.00469348 -0.9330885 0.11784664 -0.10299392
000350 39 e7 e1 bd 8c 06 90 bd 49 40 0c 3f 20 c9 89 3d
       -0.1103043 -0.07032499 0.5478559 0.06727815
000360 fa ca ad bc 0f c1 a4 bd 9a 65 c0 bc d2 3a aa bc
       -0.02121495 -0.080446355 -0.023485947 -0.02078
000370 39 16 0d 3e a9 d1 33 39 c6 90 bf bd 87 dc 8f bd
       0.13778009 0.00017148875 -0.09353785 -0.07024484
000380 27 59 fe bc 07 53 8a bf 09 d0 f0 bd 62 3b 47 bf
       -0.03104837 -1.0806588 -0.117584296 -0.77824986
000390 5c 45 c5 bd bc f6 ae bd 8c 1b 17 3c 82 1f c0 bd
       -0.0963237 -0.085431546 0.009222876 -0.0938101
0003a0 18 f1 d6 bd fe 66 d7 3d e6 cb b6 bd 3b cd 42 c0
       -0.10495204 0.10517691 -0.08925609 -3.0437763
0003b0 a0 39 c2 bd ed f4 82 bc 86 be 8f bd 3c fe 70 3a
       -0.09483647 -0.01598593 -0.07018761 0.00091931573
0003c0 89 ba 01 be 93 62 4f bc 0b 42 9e 3e 08 dc 00 be
       -0.12668814 -0.012657779 0.30909762 -0.12583935
0003d0 7a 67 a3 3e 82 1d c3 3d d4 e4 59 3c 5a c1 2c be
       0.31914884 0.095271125 0.013299186 -0.16870633
0003e0 f8 08 2e bc 53 83 6a 3e 54 ee 44 3c b4 79 c1 3c
       -0.0106222555 0.22901659 0.0120197125 0.023617603
0003f0 c8 6c 14 bd d6 9c 63 be 1e 73 28 3d c0 f8 a0 3e
       -0.036236554 -0.22227797 0.04112541 0.3143978

bias f4 [128]
000000 1d 91 02 bd fb a3 f6 3c 89 89 e2 3e a3 a4 47 3d
       -0.031876672 0.030107489 0.44245556 0.048740994
000010 56 ed 3a 3e c1 77 4a bd e2 82 7b 3d 0c 7b 00 3d
       0.18254599 -0.049430612 0.061404116 0.031367347
000020 26 83 82 bd ba 0c e4 bd 85 ce 27 3d d2 15 93 bd
       -0.06372671 -0.1113524 0.040968437 -0.07181896
000030 9d 7d e1 3d 6d b5 0e 3d d2 5c 82 bd 31 f5 bf 3e
       0.11010287 0.03484099 -0.0636536 0.37491754
000040 59 18 c6 3d d1 23 86 3e 8f 76 b2 bc fe 1c 81 3e
       0.09672613 0.261992 -0.021785049 0.25217432
000050 dc 50 8a bd 18 84 1a 3d ba 61 19 bd 9a 87 5c bc
       -0.06753704 0.03772363 -0.037446715 -0.013460064
000060 a1 22 56 3e c1 dc f6 3d 64 2e 96 3e ee b4 a1 3e
       0.20911647 0.12053824 0.29332268 0.3158335
000070 a9 68 98 bd 6e c4 69 bd e5 a7 68 3e 8d 7c 93 bb
       -0.07441837 -0.057072096 0.22720297 -0.0045009316
000080 6b 3d 0b be 0e c3 72 3e d3 e4 a7 bd c7 99 aa 3e
       -0.13597648 0.2370722 -0.08197942 0.33320448
000090 31 fe 83 bd 80 01 c7 3c fb 37 9d 3e e8 b3 7e 3c
       -0.064449675 0.024292707 0.30706772 0.015545823
0000a0 de e4 10 be d2 38 9e 3e 3a fa 71 bd e0 50 9f 3d
       -0.14149806 0.30902725 -0.059076525 0.077790976
0000b0 d8 37 24 3e c8 e8 be 3d fa 8b 3b 3d d5 61 0e 3e
       0.16036928 0.09321743 0.04578779 0.13904507
0000c0 97 a6 49 3e a5 5d 30 3e d0 a5 b2 3e 66 06 5b 3e
       0.19692455 0.17223223 0.3489213 0.2138916
0000d0 e6 2c 71 bd e5 5d ee bd 8c c8 ae bc d6 2c 48 3e
       -0.05888071 -0.11639003 -0.021335863 0.19548354
0000e0 8c b1 6d 3e 5f 81 46 bd 2c 3e 4a 3e 5f 1b 88 3e
       0.2321226 -0.04846322 0.19750279 0.26583382
0000f0 04 e4 6e 3e 5d dc 46 3c 96 9d 90 3e 0c fd 11 3e
       0.23329169 0.0121375 0.2824523 0.14256686
000100 b7 09 9a 3e 96 de 16 be ab 8a 84 3e 15 cb 5c 3e
       0.30085537 -0.14733347 0.25887045 0.21561845
000110 c1 5e cf 3d 06 27 7e bd f5 d2 f1 bd a3 f3 d2 3c
       0.10125495 -0.062048934 -0.11807815 0.02575094
000120 70 44 5b bc c2 93 a0 bc e1 05 e2 bc 6d 88 81 bd
       -0.013383016 -0.019601706 -0.027590694 -0.06324849
000130 be e0 dd 3c c2 06 ae 3c bc 02 ab bd b0 48 28 3e
       0.027084704 0.021243457 -0.08350131 0.16433978
000140 b3 2f c4 3c 19 13 e9 3c 91 88 c7 3d 43 5d 19 3e
       0.023948526 0.02845149 0.09742845 0.14976983
000150 da 21 90 3e e1 96 23 be 28 ef 9b be ed 51 4c 3d
       0.28150827 -0.15975524 -0.304559 0.049882818
000160 da 90 e5 bd 54 ba 02 bc ee e3 68 3d 2b f2 07 bd
       -0.11209269 -0.007978994 0.056857996 -0.033189934
000170 45 7d 8e be 3b 47 91 3b ce 35 4c 3e 60 3d 95 bd
       -0.27829948 0.00443354 0.199424 -0.07287097
000180 e1 f9 19 be b2 bb 1c bc 7a 8a be 3c 01 84 c2 3c
       -0.15036727 -0.009566234 0.02325939 0.023744585
000190 6c e2 80 3d 88 85 8f 3d 1e 1d 1e 3e fa 6a ea bd
       0.062931865 0.07007891 0.15440795 -0.114461854
0001a0 06 03 c0 bb ac 41 bd 3e 7c 75 54 be 15 5b a3 bd
       -0.0058597354 0.36964166 -0.20747942 -0.07976357
0001b0 18 47 a0 bc ac 65 ec bd 86 66 d2 3e 0d 6c ed bd
       -0.01956515 -0.1154283 0.41093844 -0.11592875
0001c0 a3 73 a2 3c e8 f0 59 3e a8 36 50 bd a2 ed c1 bd
       0.01983053 0.21283305 -0.050833374 -0.09469153
0001d0 c9 56 34 bd f2 2d 87 3d 3a c6 04 bd 9f b8 c5 bc
       -0.044028077 0.0660056 -0.032415606 -0.024135886
0001e0 a1 96 f7 bd 12 41 e2 bd ea ee 9e bd b1 1a e5 3d
       -0.12089277 -0.110475674 -0.07760413 0.111867316
0001f0 c5 a1 43 3e fb ac be bd 43 9c 8d 3e 89 c6 f6 3c
       0.19104679 -0.09310337 0.2765828 0.030123966

weight f4 [46, 128]
000000 ba f4 71 3e 44 23 f5 bd 8a 1e 17 3d 63 65 d6 bc
       0.23628512 -0.11969617 0.03689436 -0.026171392
000010 78 1e 27 3e eb 31 64 3e 56 e5 f9 3d a3 32 8c 3e
       0.16320217 0.22284667 0.122019455 0.27382383
000020 38 5b 2e 3e 4e 2d d5 3d d2 a1 cb bb 66 64 64 3e
       0.17026985 0.10409032 -0.006214359 0.22303924
000030 97 33 2c 3e 00 98 4d 3c 5d bd af 3d a5 f5 bf 3d
       0.16816555 0.012548447 0.0858104 0.09373025
000040 02 d3 aa 3d 82 d2 02 be ab db 34 3e 54 0d 06 bd
       0.08341028 -0.12775615 0.17661922 -0.032727554
000050 c2 e8 6f 3e 06 c2 49 3e 08 85 6c 3e 2c c7 7d 3e
       0.23428634 0.1970292 0.23097622 0.2478301
000060 07 98 80 be 02 e3 06 bd d7 96 b4 bc d7 23 b0 3b
       -0.25115988 -0.032931335 -0.022044582 0.005375366
000070 ef 52 35 bd 1a b2 6e 3e de 50 32 be 8e 85 20 3e
       -0.044268545 0.23310128 -0.17413661 0.15675947
000080 da 89 77 be 3d a2 36 3e d2 05 74 3e 4a 26 eb 3c
       -0.2417368 0.17835326 0.23830345 0.028704781
000090 28 eb 1a 3e 46 05 da 3d 37 46 21 be 22 77 10 bf
       0.15128767 0.10645537 -0.15749441 -0.5643178
0000a0 a0 5b 19 3e 43 03 43 be f0 60 15 3e 05 7e 4f bc
       0.14976358 -0.19044213 0.1458776 -0.012664323
0000b0 f8 51 78 bd be 89 49 bd 77 d0 c5 bd f6 07 52 bc
       -0.060625046 -0.049203627 -0.09658902 -0.012819281
0000c0 9b 66 28 3d 0b 7b 65 bd 20 2d 8f be 8a d0 d5 3e
       0.041113477 -0.056025546 -0.27964115 0.41760665
0000d0 66 60 52 3e 31 f4 80 3e 8b 9f 55 3e 26 c5 e2 3d
       0.20544586 0.25186303 0.20861642 0.11072759
0000e0 3d 93 8f 3c 5e 30 27 3e 80 d5 fc bd 4b 21 8e 3e
       0.017526263 0.16327044 -0.123454094 0.27759776
0000f0 a6 d4 3e be bd 1f f4 3d 2b 6d 4e bd 89 59 ff 3d
       -0.18635806 0.11920116 -0.05039708 0.12468249
000100 02 1b d3 3d 76 20 23 3e 90 ef c4 bd 0b 69 0e be
       0.10307886 0.15930352 -0.096160054 -0.13907258
000110 96 7d 78 bd 2f 7b df 3d a8 af 43 be 3c f7 49 3e
       -0.060666643 0.10912167 -0.19109976 0.19723219
000120 84 eb 80 3e 3c 48 2c 3e 25 9d e9 3d 47 47 27 3d
       0.25179684 0.1682443 0.11406926 0.04083946
000130 56 a6 20 3e 96 ab 8a be 21 85 8d 3e 66 76 1b be
       0.15688452 -0.27084035 0.27640632 -0.15181884
000140 3c 6d 8a 3e ee 38 21 3e 74 ae 02 3c ee fc 6d 3d
       0.27036464 0.15744373 0.007976163 0.05810254
000150 8f da 99 3c d9 aa d1 3d 1b fa a3 bd 93 6d 91 3d
       0.018780975 0.10237665 -0.08006688 0.07100978
000160 93 b4 82 3e 1d 7f dc bd 9c 55 92 bc 0e 71 f0 3d
       0.25528392 -0.107664324 -0.017863087 0.117403135
000170 18 ba 46 be 20 08 5a 3e 08 50 f1 3a 40 b6 21 3e
       -0.19406927 0.21292162 0.0018410692 0.15792179
000180 76 86 ff 3d d3 34 fc 3d 4f 2f 4d be 4c 4b 71 3e
       0.12476818 0.12314763 -0.20037578 0.2356388
000190 1c 62 35 3c 98 c4 01 bb 1f d4 b7 bd 4f 9e 3c 3e
       0.011070754 -0.0019801017 -0.08976006 0.18419765
0001a0 02 c3 7c 3e 19 01 c7 3d f2 10 81 3e ec d9 47 3e
       0.24683765 0.09717006 0.2520824 0.19516724
0001b0 72 6e 49 3e 95 59 80 3e 67 b0 e7 3b 9c 81 30 3e
       0.19671038 0.25068346 0.0070705893 0.17236942
0001c0 73 b2 ed 3d 6a 7c e3 bc a8 7f 64 3e e9 b0 77 3e
       0.11606302 -0.027769286 0.22314322 0.2418858
0001d0 74 c1 8d 3e 8d 3e 1f bd 84 db 47 3e 00 85 50 3e
       0.27686656 -0.038878012 0.19517332 0.20363235
0001e0 b6 1a ff 3d e1 df d4 3d e8 d7 16 3e 06 a1 0c bd
       0.124562666 0.10394264 0.14730799 -0.03433325
0001f0 86 57 72 bc ac 60 27 3e b3 41 86 bd 76 00 0c be
       -0.014791375 0.16345471 -0.065555 -0.13672051
000200 0d ff 86 3e e1 26 74 be 31 d2 15 3e ce 7f 04 bd
       0.26366463 -0.23842956 0.14630963 -0.032348447
000210 1d 4a 02 be 41 2c 72 3e 9f 2f 5e bd e5 88 98 3e
       -0.12723584 0.23649694 -0.054244634 0.29791942
000220 4f 57 65 3e 27 12 d7 bd 2c 2c ca 3c d3 95 b8 3e
       0.22396587 -0.10501509 0.024679266 0.36051807
000230 ac 0d 41 be 84 23 93 bd bf 4e a0 3e 8e bd 18 3d
       -0.18852872 -0.071845084 0.31310079 0.03729015
000240 64 ef 1e be e4 70 ba bd 65 5c 78 3e 33 36 b2 bd
       -0.15521008 -0.091035634 0.24253996 -0.08701744
000250 a1 72 81 3e 53 df 96 3e 25 d0 6d 3e e7 d3 c5 3e
       0.25282767 0.29467258 0.23223932 0.3863823
000260 95 3b 43 3d a3 52 88 bd 00 8e 1f bd aa 85 ca 3d
       0.047664244 -0.06656387 -0.03895378 0.09888776
000270 7c 2e 99 bc 59 a2 b7 3e 66 0d d3 3c fe d7 c2 bd
       -0.018698923 0.3586605 0.025763225 -0.095138535
000280 46 d0 5b 3d 26 ce 05 be 1d c0 94 3e bf bd 12 be
       0.053665422 -0.1306692 0.2905282 -0.14330195
000290 35 84 ab 3e 71 c3 a4 3e 65 55 2b 3d 56 de 65 3d
       0.33499303 0.3218036 0.041829485 0.05612024
0002a0 fd 92 9a 3e d7 2d 4e 3e 4d 70 a8 3e aa 93 36 be
       0.30190268 0.20134674 0.3289818 -0.17829767
0002b0 6e 96 06 be df a1 5e be cb c0 52 3e b1 a0 a0 bb
       -0.13143322 -0.21741436 0.20581357 -0.0049019684
0002c0 02 7d 24 be 6e 35 57 bc 3a 83 b8 3c 3b 03 7c bd
       -0.16063312 -0.013135297 0.022523511 -0.06152652
0002d0 97 74 b3 3e 43 57 a7 3e 85 b7 b4 3e db 88 ac bd
       0.35049888 0.32683763 0.35296264 -0.084245406
0002e0 1e 41 d9 3d 0b a6 8b 3e 24 b6 5f 3e d1 26 07 3d
       0.10608123 0.27275118 0.21846825 0.032996003
0002f0 d3 a9 5e 3e 55 d9 62 3e 78 fc 6a be 31 27 1a 3d
       0.2174447 0.22153218 -0.22947872 0.037635032
000300 dc e5 62 be d0 29 bc 3e 2f 3f cc bd 9e 1f 54 bd
       -0.22157997 0.3675065 -0.09972989 -0.051787965
000310 da 43 f5 bd 67 71 9a 3e 1f 9e 4a 3d e5 5f ba 3e
       -0.11975832 0.30164644 0.049467202 0.36401287
000320 4d 33 94 3e 4b 86 7a 3e 97 15 85 3e a0 0d 61 3d
       0.2894539 0.24465291 0.25993034 0.054944634
000330 47 49 c7 3e 31 f9 a1 3d e7 6d 6c 3e 1c 9d d5 3d
       0.38923094 0.079088576 0.230888 0.10430357
000340 cd d6 95 3e 35 4a a9 3e 27 93 34 3e 87 7c 21 be
       0.29265442 0.33064428 0.17634259 -0.1577016
000350 30 5a f4 bd 52 88 0c 3f 25 98 9b bd 8c 7c 3c 3e
       -0.119312644 0.5489551 -0.07597379 0.18406886
000360 13 d7 cd 3e df cf 31 3e 3a 2d c0 3d f7 1a 70 3e
       0.4020315 0.17364453 0.09383626 0.23447786
000370 dd 64 8a 3e 57 56 a1 3e 6e 31 1f bd 65 f8 92 3e
       0.27030078 0.31511185 -0.0388655 0.28705135
000380 07 d3 ab 3e a7 38 80 3e 93 42 97 3e 0f f9 81 3e
       0.3355944 0.25043222 0.2954298 0.2538533
000390 4c 13 32 be e0 c8 ee 3d 29 83 98 3e 91 61 86 3e
       -0.17390174 0.116594076 0.29787567 0.26246312
0003a0 57 6e b2 3e 0e da 2c 3e 1a 2c 9d 3e a9 56 ad 3e
       0.34849808 0.16880056 0.3069771 0.3385518
0003b0 1b 26 b6 3e 67 7e a0 3e a6 d2 5a 3d 67 a7 67 3e
       0.35575947 0.31346437 0.053423546 0.22622453
0003c0 4f 1e c2 3e 24 66 02 3e 37 28 76 3e 1d 0f 83 3e
       0.3791375 0.12734276 0.24038778 0.25597468
0003d0 1e aa c0 3e 1c 04 06 3e db ed 84 3e d5 2e b5 3e
       0.3762979 0.13087505 0.2596272 0.35387293
0003e0 11 b1 9f 3e 1f b5 a8 3e 7b 0c 93 3e c5 28 18 3d
       0.31189778 0.32950684 0.2872046 0.037148256
0003f0 01 8e 15 3c 3e 7c 91 3e 0d a1 21 3d 65 e9 7e 3d
       0.009128095 0.28415102 0.03946023 0.0622343

bias f4 [46]
000000 76 59 53 be 4f 80 65 be 33 00 b4 be 8e 15 a7 3e
       -0.20639595 -0.22412227 -0.35156402 0.32633632
000010 db 41 da be d7 f2 31 bf 55 87 fb be 84 18 c8 3e
       -0.4262837 -0.6951117 -0.49126688 0.39081204
000020 cd 40 61 bc 5e b1 99 be cf 2f d0 be 10 95 35 be
       -0.01374836 -0.30018133 -0.40661475 -0.17732644
000030 61 72 d1 be 7a 59 96 3e 7b 99 a0 3e 34 3f 5a 3e
       -0.40907577 0.2936514 0.31367096 0.21313173
000040 cd 9b 3f be fd d4 6e 3d 83 28 b4 be c6 b1 a5 3e
       -0.18711777 0.05830859 -0.35187158 0.32362193
000050 99 28 9e be 36 b6 61 3e ea 56 10 be 38 48 b6 3d
       -0.3089035 0.22042164 -0.14095655 0.089004934
000060 e2 cb 56 bd e1 be 6b 3e 1b e2 81 be b0 12 73 3d
       -0.05244053 0.23022033 -0.25367817 0.059343994
000070 b4 43 62 be eb 26 48 3e 13 80 d1 be a8 00 83 bd
       -0.22096139 0.19546096 -0.40918025 -0.063966095
000080 74 fd d8 be 36 60 32 bd 83 dc 60 be 4c 49 29 3e
       -0.4238087 -0.043548785 -0.21959119 0.16531867
000090 49 09 97 be ca 8d 0a 3e f2 5c 81 be c6 01 92 3d
       -0.29499272 0.1353065 -0.25266224 0.071292445
0000a0 1d 3b 42 be 57 ab 84 3c b9 2a cb be 79 5c 2b 3d
       -0.18967862 0.016194982 -0.39681032 0.041836236
0000b0 78 25 26 be 86 72 25 3e
       -0.1622523 0.16156968
