2D_examples/sample_checkerboard/best_IDFF_model.pt (torch, 535904 bytes, 8 tensors)

net.0.weight f4 [256, 3]
000000 97 8b cd bc 31 38 dc bc 90 34 66 be 1e 5f 05 3a
       -0.025090976 -0.026882263 -0.22480989 0.0005087721
000010 d6 42 90 3a 16 f2 65 3a 2f f1 8e 3e 2f 47 21 3d
       0.0011006247 0.00087717304 0.27918383 0.039374527
000020 51 41 01 be 53 75 d8 bd 61 39 e9 3c d1 5d 8b 3e
       -0.12622572 -0.10569253 0.028469743 0.27220014
000030 31 f2 03 3d 1a c4 c6 bd ac 84 91 3e 67 19 9b 3a
       0.032213394 -0.09705372 0.28421533 0.0011833132
000040 3a 6d 28 3e cf fb 9b bd b5 b9 92 bd 5b 6a d8 3b
       0.16447917 -0.07616388 -0.07164327 0.0066044754
000050 c0 09 a3 3e 1c d7 f8 bd 73 6b 8f bb 04 9b 6e 3d
       0.31843376 -0.12150404 -0.0043768226 0.058253303
000060 54 25 1f 3e 1d 76 49 be 1d bb a9 3e fd 9b 9d 3c
       0.15541583 -0.19673963 0.3315057 0.01923942
000070 17 c3 51 3d d5 28 4b be 6c 38 ef 3c 4a 7f 73 bb
       0.051211443 -0.19839795 0.029201709 -0.0037154728
000080 bd ce 45 3e e5 bf ce 3b ae 3b 2e be e4 19 b0 be
       0.19317146 0.0063094967 -0.17014953 -0.34394753
000090 d6 c1 80 bd fd 58 7f bd 44 6d 8d be 0e 0a 1e be
       -0.06286971 -0.062340725 -0.27622426 -0.15433523
0000a0 35 9c 22 3e 03 a6 83 3e 4c e7 8a bb d9 8e 83 3e
       0.15879901 0.25712594 -0.0042389985 0.25694922
0000b0 85 be 76 be 46 4b 2f 3e b8 a9 4f be ec cc 60 3e
       -0.24096115 0.17118558 -0.20279586 0.21953171
0000c0 63 5e cb 3d ef 4f 82 bb 2b 9d ac 3e 5c aa 73 be
       0.09930112 -0.003976814 0.3371366 -0.23795456
0000d0 ab 72 83 be c1 8c b0 be e5 5e 5d bd bd ff 4c 3d
       -0.25673422 -0.34482387 -0.054045577 0.05004858
0000e0 78 00 32 be 5a ed 93 3e 98 73 73 3e 49 42 94 be
       -0.17382991 0.28892022 0.23774564 -0.28956822
0000f0 d7 52 08 3e a2 98 ff bd d9 90 ef 3d df bb 42 3c
       0.13312851 -0.12480284 0.116975494 0.011885612
000100 50 dc d6 bb ce da a1 be da 89 1b be a3 53 14 bd
       -0.006557025 -0.31612247 -0.15189305 -0.036212575
000110 86 b6 a0 3e 2b 3b 84 be c1 8b 82 be 20 e3 b7 be
       0.31389254 -0.25826392 -0.2549725 -0.3591547
000120 36 14 d4 bd 5d d4 af 3c 40 73 99 3e f7 60 c5 3d
       -0.103554174 0.021463567 0.2997074 0.09637635
000130 09 76 ce bd a3 82 8a be e3 e2 59 bb 29 e5 4a 3e
       -0.10081107 -0.27052793 -0.0033246807 0.1981398
000140 4e 5c 8d be a7 ca 57 3e ae 9a 90 be e5 62 28 3e
       -0.27609485 0.210734 -0.2824301 0.16443975
000150 54 ea f7 3d 49 c4 2f 3d 43 d8 55 3e 10 c8 43 3d
       0.121052414 0.0429118 0.20883279 0.047798216
000160 ae 14 0e 3d 54 82 9c 3e e3 01 b6 bc 58 2d 0d 3c
       0.03468769 0.30568182 -0.022217697 0.008616768
000170 64 29 4a 3e 8e 2f 19 bd bc 73 08 3e 52 e7 5e 3e
       0.19742352 -0.037398867 0.13325399 0.21767929
000180 06 57 4a bc 4d cc 95 3c 0c 66 6b 3e d6 e2 21 3c
       -0.01234985 0.018285895 0.22988147 0.009880742
000190 86 c0 7f 3e 59 de 34 bd 17 fa 6b be 96 b4 67 be
       0.24975786 -0.04415736 -0.2304462 -0.22627482
0001a0 ba 7e c7 be fe 32 b3 3d dc c8 be 3d 30 43 ba 3e
       -0.38963872 0.0874996 0.09315655 0.36379385
0001b0 04 b3 c0 bd 18 8d fd 3d 11 a4 17 bc fa c5 e0 bb
       -0.094091445 0.12380427 -0.009255425 -0.006859538
0001c0 5d 9b a3 3d 43 54 c9 3e 1d b8 d1 bd 15 c8 cc 3d
       0.079886176 0.393221 -0.10240195 0.099991
0001d0 76 4f 9e 3e 4d 1e a1 3d 8e aa a8 bd b6 5e 8e be
       0.3092 0.078671075 -0.08235656 -0.27806634
0001e0 b8 56 3e be 34 d5 3b 3e 1c de bc 3e 77 af 33 be
       -0.18587768 0.1834305 0.36888206 -0.17547403
0001f0 cf da 00 3d 0d 3b 9a 3e d5 e9 1e bd 74 33 18 3e
       0.031458672 0.30123177 -0.03879722 0.14863378
000200 8f 84 98 be c0 8e c4 bc 0a fa 21 bd 83 ad 1c 3e
       -0.29788634 -0.02399385 -0.039545096 0.15300564
000210 65 e5 2e 38 67 f9 39 3b 59 ea b2 be c7 b1 70 bd
       4.1698473e-05 0.0028377415 -0.34944418 -0.05876329
000220 8f 30 8d bc c3 0d cc 3e 45 9a eb 3c 5b 0c b5 3c
       -0.017235069 0.3985425 0.028760085 0.022100618
000230 c4 80 3d 3d 04 a0 a5 3d df cc 04 3d 9d 6a f7 3d
       0.04626538 0.08087161 0.032421943 0.12080882
000240 ef 46 62 b9 d0 68 87 3d 16 35 6c be 11 d3 01 3d
       -0.00021579464 0.06611788 -0.23067126 0.03169543
000250 97 60 f3 bd a0 1e cf 3e 04 d7 a0 bd 2d 31 a3 3d
       -0.118836574 0.40453053 -0.07853511 0.07968364
000260 1e b8 b3 3d b3 77 e6 ba 3d 4f 84 bd 2e e0 5a bd
       0.08775352 -0.001758328 -0.06460426 -0.05343645
000270 c8 da cb 3b 72 28 a8 bd 69 b4 bb 3e bd b6 41 bc
       0.006221149 -0.08210839 0.3666108 -0.011823353
000280 55 4b 88 3c 6e 1d 3f 3e 50 25 c1 bd ba 2b 02 be
       0.016637484 0.1866357 -0.09430945 -0.12711993
000290 95 1f 6c 3d ee 55 21 bd ab ff 07 3d 10 e7 b6 3e
       0.057647306 -0.03938859 0.03320281 0.35723162
0002a0 b2 08 91 3d 5e a0 8f bd 43 6b 71 be 78 03 1c bb
       0.070817366 -0.070130095 -0.23576073 -0.0023805778
0002b0 82 3d 0d be 50 62 96 3d 58 ba 5e 3c 62 02 72 bd
       -0.13792995 0.0734297 0.0135942325 -0.059084304
0002c0 8b 73 62 3e 69 8b 74 3e d6 cc 5b be 26 31 96 3d
       0.22114389 0.23881306 -0.21464857 0.07333593
0002d0 9f 9a 45 3d 1d ef 3d bd 85 02 ef bd c1 0b 27 3e
       0.04824316 -0.046370614 -0.116704024 0.16313078
0002e0 00 d1 6f bd ab 49 c0 be 48 8b d5 3d a6 c0 bd 3d
       -0.058548927 -0.37556204 0.104269564 0.092652604
0002f0 61 3f 95 3e 52 6c d6 bc 7e f3 1b 3e a7 e7 5a 3e
       0.29149917 -0.026174698 0.15229604 0.21377431
000300 f1 be 35 be c4 7d 03 bc 41 d4 73 be ec 30 76 bd
       -0.1774862 -0.00802559 -0.23811437 -0.06010525
000310 ec 39 74 3d d5 a3 44 be 63 1b d3 bd 10 17 d6 bd
       0.05962555 -0.19203122 -0.10307958 -0.104536176
000320 9c 2d 53 be d7 5d c3 3c 87 5e 1d bd 61 f5 3f be
       -0.20622867 0.023848457 -0.038420226 -0.18745948
000330 4c b3 04 3e fc 61 71 3e fb 33 bd be 2a 74 95 bd
       0.12959021 0.23572534 -0.3695372 -0.07297547
000340 92 2d 95 3c bd ad 5c 3e 95 da 1e 3e 14 f3 19 be
       0.018210206 0.21550651 0.1551307 -0.15034133
000350 8e 7c d7 3d 6c 1d ff 3d 34 15 11 3e 99 89 99 3c
       0.10521804 0.12456784 0.14168245 0.01874237
000360 c6 25 2c be 40 2b 23 3e cb 91 a6 be df 16 f0 bd
       -0.16811284 0.15934467 -0.32533106 -0.11723112
000370 e1 ad e7 bd 97 b9 a3 3d 4c 2e 98 3b b5 9a 66 3e
       -0.11312462 0.07994383 0.004644191 0.22519954
000380 e7 f6 27 be 4f d5 f7 3c 21 d5 13 bd ef 8d 6f 3e
       -0.1640278 0.03025308 -0.036091927 0.23393987
000390 37 5b 0c be 5d 89 93 3e f1 ee 5f be 9f 01 09 3e
       -0.1370667 0.28815737 -0.21868493 0.13379525
0003a0 bc 16 69 be c0 2d b8 be 30 53 e1 bd f6 18 8c 3b
       -0.22762579 -0.35972404 -0.11002195 0.0042754365
0003b0 d4 af 50 3e cf a4 1e be 49 df 5a bb d4 45 80 3e
       0.20379573 -0.15492557 -0.0033397248 0.25053275
0003c0 bd ab 1d be f6 e6 00 be 96 f9 5e 3e 0c f8 be 3d
       -0.15397544 -0.12588105 0.21774897 0.09324655
0003d0 e2 6a 9d 3d 9a dc 70 be c9 62 9e 3d ec 52 a1 bd
       0.07686402 -0.23521653 0.077336855 -0.07877144
0003e0 34 a9 5b 3e 61 0b 35 b9 10 39 b6 3d b9 7b b9 be
       0.21451265 -0.00017265744 0.088976026 -0.36227205
0003f0 e3 4b 52 be b2 10 6e 3d 83 1c ac be 35 d6 fa bd
       -0.20536761 0.05812139 -0.33615503 -0.12247888

net.0.bias f4 [256]
000000 23 48 7c 3e 75 13 22 3a 2a aa f4 3c a9 06 2b be
       0.24636893 0.0006182709 0.029866297 -0.1670176
000010 69 b1 27 be 4e 6a 05 be a4 cd 4f be b3 bc 2e be
       -0.1637627 -0.13028833 -0.2029329 -0.1706417
000020 63 31 77 be 0b 33 0d 3d e2 06 10 be 90 60 49 3e
       -0.24139933 0.034472506 -0.14065126 0.19665742
000030 e7 a3 02 3e f4 09 b2 bb a6 14 f1 bd 78 26 12 3d
       0.12757836 -0.0054333154 -0.117715165 0.035681218
000040 d9 66 2e be 94 94 26 be 04 79 10 3e 41 cd 99 be
       -0.17031421 -0.16267616 0.14108664 -0.3003941
000050 fe 01 a3 be f0 da 77 3e de df 34 be 70 ee 17 3e
       -0.31837457 0.24204612 -0.17663524 0.1483705
000060 d2 fa 45 be 9d f7 68 3e 01 b9 cd bc ab 9e 30 be
       -0.19333962 0.22750707 -0.02511263 -0.17248027
000070 33 79 6a 3c 1f 6c 3f be 02 b7 ea bd 23 11 41 be
       0.014311123 -0.18693589 -0.11460687 -0.18854193
000080 36 87 e4 bc 5c 72 1a bd e1 2b 62 bc a1 e4 16 be
       -0.027896505 -0.037706718 -0.013804407 -0.14735653
000090 ee 17 e7 3d 63 d3 82 be 9c 04 d9 bd 93 05 5e 3e
       0.11283861 -0.255519 -0.10596582 0.21681814
0000a0 4a ab 8c be 93 48 98 3c 98 c4 94 3e 57 77 90 bd
       -0.27474433 0.018589294 0.2905624 -0.07054012
0000b0 aa 59 8e 3e 38 02 5e be 3a 40 04 3d 36 f2 df 3c
       0.27802783 -0.21680534 0.032287814 0.027337175
0000c0 58 e9 ed bc 40 4a 8c be 95 bf b2 3d a4 e4 7d 3d
       -0.029041931 -0.27400398 0.087279476 0.061985627
0000d0 10 83 61 be 28 8e e3 bd d2 1d 17 3e 74 4b 8d bc
       -0.22022653 -0.111110985 0.1475747 -0.017247893
0000e0 85 4c 97 3e f4 48 ed 3a 28 94 ad bd 63 67 35 be
       0.29550567 0.0018103407 -0.08475524 -0.1771522
0000f0 52 a7 17 3b 85 c2 0f bd 53 ca 58 3d f8 5e dc 3c
       0.0023140502 -0.035097618 0.052927326 0.026900753
000100 f8 fd 72 3e 08 a9 2a 3e 96 25 f9 3d bf 49 57 3b
       0.23729694 0.16666043 0.12165372 0.0032850353
000110 89 15 a4 be 66 49 11 be 17 10 b5 bd e7 ab 44 3e
       -0.3204768 -0.14188156 -0.088409595 0.192062
000120 cb fb 95 3e 66 7b 82 be 5d 88 44 3e 2f aa 62 be
       0.29293665 -0.2548477 0.19192643 -0.22135232
000130 e3 44 13 be 52 7c d6 bd fa 2b d3 bd 8f a4 bf 3d
       -0.14381747 -0.10472931 -0.10311122 0.09357559
000140 27 2f c1 3d fe 12 e5 bd a0 31 25 be 1b be 5c 3c
       0.09432822 -0.11185263 -0.16132212 0.013473059
000150 92 cb 1c 3e 21 03 3b be 66 6a 4c be 14 dc c8 bd
       0.15312031 -0.18262912 -0.19962463 -0.098076016
000160 01 db 5d 3e a2 f5 83 3e 19 c1 a7 bd 23 60 3f bd
       0.21665575 0.2577334 -0.08191127 -0.046722542
000170 ee 17 a7 3e 08 a0 29 3d 10 94 33 3d ac 0f e1 bd
       0.32635444 0.041412383 0.043842375 -0.10989317
000180 14 87 52 be cd 3f 7b be 2d 41 86 3e d0 86 4b 3e
       -0.2055934 -0.24536057 0.262216 0.19875646
000190 35 f8 62 3c 49 2a ef 3d fe bb 96 3e 05 eb ff 3b
       0.0138531225 0.11677987 0.29440302 0.007809999
0001a0 98 b4 68 bd 01 ef 32 3e ab 13 80 be 92 de 61 3e
       -0.056812853 0.17473985 -0.25015005 0.2205756
0001b0 da 52 50 bd c8 70 d6 3c 20 d4 dc bc 3d 05 10 3e
       -0.050860263 0.026176825 -0.026956618 0.14064498
0001c0 fd f0 58 3d 50 59 14 3e 14 06 bf 39 4e 67 f8 bd
       0.0529642 0.14487195 0.00036434887 -0.12129079
0001d0 7c a8 68 be 6d da 89 3d 3c 04 79 3e b7 d7 8a bd
       -0.22720522 0.067311145 0.24318022 -0.067794256
0001e0 1c 68 20 3e 31 df 32 3c 5a 85 20 3e 9f c7 0a be
       0.15664715 0.010917471 0.1567587 -0.13552712
0001f0 76 60 52 be 07 ae 46 bd fe d3 6b 3e a0 43 60 bd
       -0.2054461 -0.04850581 0.23030087 -0.054751992
000200 a3 93 87 be 0e 57 87 3a 12 50 6d 3e 9f f4 e7 bd
       -0.26479825 0.0010325627 0.23175076 -0.11325955
000210 83 80 c7 bd b9 5c a8 bc 16 5b f6 3d e6 dc c6 bd
       -0.097413085 -0.020552026 0.12029092 -0.09710102
000220 1f 5b c6 bd 77 3d 73 3d fd c4 f3 3d 4f 1f 71 be
       -0.09685349 0.05938479 0.11902807 -0.235471
000230 5d 99 1b be 4f 82 48 3e 9a 70 e6 3d 13 7a 56 be
       -0.15195222 0.19580959 0.11251946 -0.20945005
000240 99 47 57 bd 3d 51 0c be 44 98 8c 3e c1 76 a4 3d
       -0.052558515 -0.13702865 0.2745992 0.08030463
000250 83 91 36 bd 78 f7 63 be c4 fe 52 3e c1 94 96 bd
       -0.044572365 -0.2226237 0.20604998 -0.07352591
000260 0a e4 98 3d 19 53 18 bd c9 15 ec 3d f3 d0 ac be
       0.0746537 -0.037188623 0.11527593 -0.33753166
000270 cc 93 3e be 03 b8 88 be a6 73 1f be d7 23 7d be
       -0.18611068 -0.2670289 -0.1557146 -0.24720703
000280 e2 3f 5a be 70 39 00 3e 73 3f ef bd bc f8 94 3d
       -0.21313432 0.1252191 -0.11682024 0.07274005
000290 80 d1 61 3e e7 65 a4 39 83 db d0 bc 4e 01 2a 3e
       0.22052574 0.0003135644 -0.025495296 0.1660206
0002a0 87 d9 50 3e 14 35 0d 3b ff 18 1f be 22 ce e2 bd
       0.2039548 0.002154653 -0.15536879 -0.11074473
0002b0 b9 cf 71 3d 00 41 91 bc e7 39 6f 3e a6 b3 05 3e
       0.05903599 -0.01773119 0.23361932 0.13056812
0002c0 0b a3 06 be ca 75 53 3e 33 c1 2b be 41 e5 1d be
       -0.13148133 0.20650402 -0.16772918 -0.15419485
0002d0 30 e3 e4 bd 78 cb 5a 3d cd 14 48 3d f2 a5 2b be
       -0.11176145 0.0534167 0.048847962 -0.16762522
0002e0 0f 08 7d 3e 0f 17 80 3e b7 99 82 be db 11 5b be
       0.24710105 0.25017592 -0.255079 -0.2139353
0002f0 45 2b 34 be 2d 24 09 3e 3d 90 84 3e 20 29 e3 bd
       -0.17594631 0.13392706 0.25891295 -0.11091828
000300 6d ae 00 be b5 56 09 3e 03 b0 2f 3e a9 a2 36 be
       -0.12566538 0.13411982 0.17156987 -0.17835487
000310 81 85 f5 3a 79 11 10 3e 99 fe 14 3e 55 fb a7 bd
       0.0018731804 0.14069165 0.14550246 -0.08202235
000320 79 d8 34 be 2a 21 26 3e 8a 06 05 3c 6b 95 be bc
       -0.17660703 0.16223589 0.008119235 -0.023264607
000330 20 f4 64 3e 6f 1d 0b be 34 21 a6 3e e7 e5 07 be
       0.22358751 -0.13585447 0.32447207 -0.13271295
000340 8e dd 5a be 8a ca f5 3d 45 aa 09 3e e1 82 03 3d
       -0.21373579 0.12001522 0.13443859 0.032107238
000350 e1 e8 9b bd 36 52 e3 3c c7 a2 df 3d f5 39 e8 3c
       -0.076127775 0.027749162 0.10919719 0.028347949
000360 c5 4d a8 ba 48 18 da bd 37 9c 38 be 02 e1 39 3c
       -0.001284056 -0.106491625 -0.18028341 0.01134515
000370 58 61 1a 3e d6 3a 76 3e af 39 af bd 07 36 fb 3d
       0.15076196 0.24045882 -0.08555924 0.12266164
000380 6f 2f ee bd af c0 80 be 80 2d 18 bd ca 7d 67 3e
       -0.11630141 -0.25147006 -0.037152767 0.22606578
000390 4f 08 d6 bc 19 f1 1b bd fb a1 6e 3d 6a 7f 0a 3e
       -0.026127009 -0.038071726 0.058259945 0.13525167
0003a0 31 4e be 3d 82 f1 96 3e 2b a1 29 b9 91 f2 e7 3d
       0.092922576 0.2948113 -0.00016177136 0.11325563
0003b0 8f 50 40 be 13 cb 67 bd 94 82 39 3e e1 e2 89 3e
       -0.1878073 -0.05659015 0.18116218 0.26930907
0003c0 8b 5b 9f 3d df f4 3d 3d 62 7a ff 3d 4c c1 a2 3c
       0.07781132 0.046376105 0.124745145 0.019867562
0003d0 5c fe 84 3e b6 c3 43 be d0 bb 8c bc b1 fc e9 bb
       0.2597531 -0.19117627 -0.0171794 -0.007140719
0003e0 84 c3 60 3e 19 d8 81 3c ea 3b 5b bd af 5e 6e be
       0.21949583 0.015850114 -0.053523935 -0.23278306
0003f0 24 33 e8 b9 04 9e 1b 3d 12 e4 88 be b4 85 b8 bd
       -0.0004428859 0.037992492 -0.26736504 -0.09009877

net.2.weight f4 [256, 256]
000000 53 1d cf 3d bd 76 2f bc 08 26 51 3d 7e 51 89 bd
       0.10113015 -0.010709462 0.05106166 -0.067049965
000010 47 3f 36 be b8 46 f9 3c a4 b0 10 be a9 44 67 3d
       -0.17797576 0.03042923 -0.14129883 0.056461964
000020 f4 c7 c0 bd 37 42 92 3d bf d6 b0 bd b7 6b df 3d
       -0.09413138 0.07141536 -0.086347096 0.10909217
000030 a4 46 33 3e 70 34 03 bd 27 80 47 3c ca 30 cc bd
       0.17507416 -0.03203243 0.01217655 -0.09970243
000040 c9 8e 31 be cc 8e 19 3d a2 96 c9 3d 51 94 9c 3c
       -0.17339624 0.037489697 0.09843184 0.019113692
000050 86 f2 3d ba b8 50 84 3e 18 7d 66 bd 92 92 b6 3d
       -0.00072459166 0.25842834 -0.056271642 0.08914675
000060 06 85 55 bd 75 a0 8c 3d 51 cb a9 3d 66 16 70 bd
       -0.052128814 0.06866542 0.08290733 -0.05861511
000070 34 2c ea bd 04 db 2d be 8e 73 2b be 6a 71 03 bd
       -0.11434212 -0.16978079 -0.167433 -0.032090582
000080 2e b5 95 bd f2 d0 d7 3c 0a af 95 3d 5f 50 a5 bd
       -0.07309948 0.02634475 0.07308777 -0.0807197
000090 70 ee ac 3c dd b4 ac be 29 d7 d8 bd 89 09 b2 3d
       0.02110979 -0.33731738 -0.105879135 0.08693225
0000a0 fd 28 d1 bd ad f8 19 bd 1c cc e5 3d 75 b9 30 bd
       -0.10212896 -0.03759067 0.112205714 -0.043145616
0000b0 7e 0d da 3e af a7 ed bd 20 e6 0a bd 5f 15 bb bd
       0.4258842 -0.11604249 -0.03391087 -0.091349356
0000c0 62 ec 2f 3d c0 a4 34 be aa d0 a6 bc dc 20 05 3d
       0.04295004 -0.17640972 -0.02036317 0.03250204
0000d0 33 5e 4d be 6c 7d 16 be 9e e9 11 bd 21 f6 b4 bd
       -0.20055465 -0.14696282 -0.035623185 -0.08836008
0000e0 5c 7e d8 3d 11 75 9e bc 53 4f 2d be 96 1d cb bc
       0.10570976 -0.019342931 -0.16924791 -0.024794381
0000f0 d9 43 03 3d 25 a9 44 3d b9 88 24 be ad 98 a8 bd
       0.032047126 0.04801287 -0.1606778 -0.082322456
000100 b5 9f b0 3d f6 8c 19 3e f7 f6 6f 3d 5d 7d 67 3d
       0.08624212 0.14995179 0.058585133 0.05651604
000110 64 26 19 3d c0 2e 91 bd 6b 02 24 bd 0d 5a 2a bd
       0.037390128 -0.07088995 -0.04004137 -0.041589785
000120 fc df 07 3e b0 f1 6c bc 51 a9 cc 3c a0 65 01 be
       0.13269037 -0.01446192 0.02498308 -0.12636423
000130 8e 21 a7 3d 36 ed 73 3d 51 08 26 bd c1 f3 fb bc
       0.08160697 0.059552394 -0.040535275 -0.03075588
000140 c4 35 24 bd c3 cf ef 3c 5c 1c 8a bd 75 7f b4 3d
       -0.040090337 0.029273873 -0.0674369 0.08813373
000150 4e 5e 1c 3e 89 55 8d bd f7 52 13 3d 56 c8 58 bc
       0.1527035 -0.0690108 0.035967793 -0.013231358
000160 6c be 3a 3e 85 30 a6 3d bd df 9c bd 37 72 2a be
       0.18236703 0.08114723 -0.07659862 -0.16645132
000170 52 8a 76 3d 68 ad da 3d 99 81 be 3d 57 d0 7f bd
       0.060190506 0.10677606 0.093020625 -0.062454548
000180 58 26 0f be 48 0f 82 be 79 e0 1a 3e cc da 1c bc
       -0.1397947 -0.25402284 0.15124692 -0.00957365
000190 8f c8 9f bd 15 93 94 3d 7c 86 39 bc 1f 95 26 bd
       -0.078019254 0.07254616 -0.0113235675 -0.040669557
0001a0 a6 eb 41 bc 01 c9 f8 3d 7c 5f c1 bd 7b 02 3c 3d
       -0.011835968 0.121477135 -0.0944204 0.045900803
0001b0 e2 8a 6e ba 48 90 16 3c bb 4f 18 be 84 f7 11 bd
       -0.00090996746 0.009189673 -0.14874165 -0.03563644
0001c0 3c 97 9a bc d4 c3 d1 3c 45 5b bb 3b cb 2b 36 be
       -0.018870942 0.025606073 0.0057176673 -0.17790143
0001d0 6f b8 15 be 1f 92 73 3d 67 5b c5 3d 30 4f 57 3d
       -0.14621137 0.059465524 0.09636574 0.052565753
0001e0 78 83 2d bd e5 2d 90 bd 46 78 51 bc 98 90 87 3c
       -0.042361706 -0.07040004 -0.012785023 0.01654844
0001f0 42 e5 1b 3d 2a af 87 be 94 dd e7 bb a8 b7 8d 3c
       0.038060434 -0.26500827 -0.0070759747 0.017299488
000200 aa 09 4a be 7e 4e 11 bc 3b 77 5b 3d be 9a bd bc
       -0.19730249 -0.008868812 0.053580504 -0.023145076
000210 6c f0 52 be 03 17 d8 bd cd ae ce bd 9d 28 2c be
       -0.20599526 -0.10551264 -0.10091934 -0.16812368
000220 69 5e 3d 3e f0 0b 84 3d 66 23 f9 3c df c2 07 3d
       0.18493046 0.064475894 0.030412387 0.033144828
000230 6a 39 1f 3d f7 e8 bd 3d 8a 9c 49 3e 8b aa 74 bd
       0.038873114 0.0927295 0.19688621 -0.059732955
000240 c0 b0 f6 39 4d b0 af bc bc c1 0b 3e c1 c4 6e be
       0.00047052465 -0.021446371 0.13648123 -0.23317243
000250 b7 06 ab 3c e1 2b 61 bd 10 6f 22 3d 21 b0 08 be
       0.020877225 -0.054973487 0.0396567 -0.13348438
000260 40 22 0f bd ff 51 d0 bd 6f 44 80 bd 48 3a 93 3d
       -0.034944773 -0.101718895 -0.06263053 0.07188851
000270 e7 ef 6c 3d d2 01 2c bd 6b 76 0d be ef eb e6 bb
       0.057845976 -0.041993923 -0.13814704 -0.0070471684
000280 65 7b 2b bd 0a 44 bb 3d 7c 1d 51 3d 59 8f 3e be
       -0.041865725 0.09143837 0.05105351 -0.1860937
000290 fb 2d 18 3e 6a 36 bc 3b bf 40 2b 3d 6e 76 05 be
       0.1486129 0.0057437913 0.041809794 -0.13033459
0002a0 f0 d9 f3 3c 34 6f 92 3d 6b 2f 68 bb 98 aa 2a bc
       0.029767007 0.071501166 -0.0035428654 -0.010416649
0002b0 15 f0 0c bd 54 81 47 be 2a 8b 38 bd e0 32 f6 bc
       -0.034408648 -0.19482929 -0.045054592 -0.030053556
0002c0 89 23 63 bc f6 ff b3 3d 50 b7 11 be 2c 5c 16 be
       -0.013863453 0.08789055 -0.14230084 -0.14683598
0002d0 5e 71 80 bc 60 98 71 3e 79 08 53 bd 07 ce ef 3c
       -0.015679058 0.23593283 -0.051521752 0.029273046
0002e0 e6 9d f4 3c 29 17 b9 3d 02 26 87 bc 66 2a 3d 3e
       0.029860448 0.090376206 -0.016497616 0.18473205
0002f0 0e 2b 03 be 91 00 d6 3d f6 f5 36 3e 88 6d 5c 3a
       -0.12809393 0.10449327 0.17867264 0.00084086554
000300 84 2e 36 be ef 02 d8 3d fc ce 16 bd df d5 a5 3d
       -0.17791182 0.105474345 -0.03681849 0.08097433
000310 dd 0c d9 3b fe 43 14 bc 64 09 c1 bd af 6a 5e 3b
       0.006623848 -0.009049414 -0.09425619 0.00339381
000320 82 32 29 be 04 11 ff bc 63 ba 25 3d c7 e5 a5 3d
       -0.16523173 -0.031136043 0.040460955 0.08100467
000330 f0 c7 29 3d c1 30 de bd 7c df e0 3c 13 db e7 bd
       0.04145044 -0.10849143 0.027450316 -0.11321082
000340 f6 24 b3 3d 33 95 55 bc ff 95 18 3e 68 cc 8d 3d
       0.08747284 -0.01303606 0.14900969 0.06923753
000350 19 2a a6 3b 1e d9 2b bb 27 1f af 3d ec 71 99 bd
       0.0050709364 -0.0026221941 0.08550864 -0.07492432
000360 67 45 37 3c ae 1c 1f be a6 f6 20 bd f1 7c 5d ba
       0.01118598 -0.15538284 -0.039297722 -0.00084490987
000370 be 52 10 3e 6d fa 9f 3d df d3 36 3e 4c 89 ff 3b
       0.14094064 0.07811437 0.1785426 0.0077983495
000380 ee 97 88 bd 73 9d c5 bd db d8 fa 3c bd e4 8d 3d
       -0.06669603 -0.09649172 0.030620983 0.06928394
000390 5e ef ee bb 2a 88 3e 3e ab 9e 13 be 9b cf af bc
       -0.0072917184 0.1860663 -0.14415996 -0.021461299
0003a0 5e 78 a0 3c 0e e2 03 3d 6b b2 21 3d 62 3e 9f 3b
       0.019588646 0.032198004 0.039476793 0.0048597315
0003b0 3c eb 6c 3c c2 15 77 be 13 3f 48 b9 ac a5 ca 3a
       0.014460381 -0.24129394 -0.00019096983 0.0015460751
0003c0 f8 5f 39 bd 42 fc 91 bc 2a e9 73 bd 90 82 43 3d
       -0.04525754 -0.017820481 -0.059548534 0.047731936
0003d0 4f 36 a6 bd f7 17 0d be 53 42 ed 3c 91 16 57 be
       -0.08115827 -0.13778673 0.02896229 -0.21004702
0003e0 83 2d 81 3d 27 c2 12 3e c6 60 9b 3e 43 cf 3d be
       0.06307509 0.14331876 0.3034727 -0.18536095
0003f0 7d 4c 37 3a 84 c1 ae bd 83 c5 96 3d a8 7b 8b be
       0.00069922936 -0.08533004 0.07361891 -0.2724278

net.2.bias f4 [256]
000000 67 48 72 3c 88 53 42 bc 7f 9d f7 3b c9 77 44 3d
       0.01478777 -0.011860736 0.007556617 0.0479658
000010 62 42 35 be 21 38 4f bc 26 0c 80 bb ac 10 7f 3d
       -0.17701104 -0.0126476595 -0.003907698 0.06227176
000020 f8 0e c4 ba f2 d6 ba bd 65 5f db 3c c2 30 fe bc
       -0.0014958074 -0.09123029 0.026778886 -0.031029109
000030 a3 0e 92 3b 90 1e b0 b9 c3 c1 95 bc 2e af d7 bc
       0.0044573112 -0.00033592107 -0.01828087 -0.02632865
000040 61 b6 a6 3c 30 35 fe 3c 3f b9 d0 bb 99 40 79 3c
       0.020350637 0.031031221 -0.0063697393 0.015213155
000050 c4 bb f0 3c 19 31 ad bc 07 79 9a 3c 4f 4b 58 3d
       0.029386409 -0.021141576 0.018856538 0.052806195
000060 ef bb d7 3c 77 37 e8 3c 71 b1 90 3c 59 6e 55 bc
       0.02633473 0.02834676 0.017662736 -0.013026797
000070 b9 70 32 3c b1 4a 71 ba b9 d6 75 bc 24 a7 6d bd
       0.010891133 -0.00092045503 -0.015004807 -0.058020726
000080 d1 95 24 bd b1 5b 4e 3b 89 e2 3c 3d ec bd cf bc
       -0.04018194 0.0031487758 0.04611448 -0.025359116
000090 38 a1 0c bd d9 c4 42 bd 3c 74 24 ba ab 7d d5 3a
       -0.034333438 -0.04755101 -0.0006273424 0.0016288062
0000a0 c3 6f b0 3c 09 47 a7 bc 9b c2 78 3b 1a 51 ad bb
       0.021537667 -0.020419614 0.003795779 -0.005289209
0000b0 3f 26 fe 3c ef 8a 1b 3d 1e 8c fd bc 35 3b 44 3d
       0.031024097 0.037974294 -0.030950602 0.047908027
0000c0 97 75 71 3b 01 02 a1 bb ff a9 ba 3c 0c 22 c1 bc
       0.003684377 -0.004913569 0.022786139 -0.023575805
0000d0 c6 24 73 3d 22 63 d5 3d b3 29 38 3d 28 d7 e2 3b
       0.05936124 0.10419299 0.044961642 0.0069226213
0000e0 5f 4d af bc fb 90 3c 3c 53 85 77 38 21 58 02 3c
       -0.021399198 0.011509175 5.9013557e-05 0.007955582
0000f0 ae 56 00 bd 70 6d 37 3b bc c9 b1 bc d6 af 9f 3d
       -0.031332664 0.0027988814 -0.02170264 0.0779721
000100 e7 cb 25 bd 78 95 22 3d a6 a3 a8 bc 9b 20 b7 bc
       -0.04047766 0.039693326 -0.020585846 -0.022354415
000110 36 6d f8 bc 67 99 3e bd d3 6e 53 3d e5 24 37 3d
       -0.030325513 -0.046533015 0.051619362 0.04471292
000120 83 60 01 bc 52 63 3c bd df bb 94 bc 52 a2 3e bc
       -0.007896545 -0.045993157 -0.01815599 -0.01163538
000130 9c dd 82 3b 25 eb 89 bd f1 fd 0d bc 79 7f ec 3b
       0.003993703 -0.067343034 -0.008666501 0.0072173444
000140 aa 41 06 bd 20 81 c4 3c 3b e0 16 3d 1b a2 cf bd
       -0.032777466 0.023987353 0.036834937 -0.10138341
000150 93 f2 35 bd eb 57 22 3d 2c 94 00 bd a6 14 e9 3b
       -0.04442079 0.039634626 -0.031391308 0.007113057
000160 dd 3f 30 3d f9 f3 c3 3c 90 d3 e4 3c f2 47 e2 bd
       0.043029655 0.023920046 0.027932912 -0.11048879
000170 32 9d 61 3c 25 d7 e2 3c de 5b 35 3d 03 fc 56 bd
       0.013770388 0.02769048 0.044277065 -0.05248643
000180 1c 25 62 bd be 0d 21 3d 70 55 22 bd 53 24 c7 bc
       -0.05521117 0.039319746 -0.03963226 -0.024309313
000190 39 e2 99 bc 12 40 1c bd e3 16 40 bb 79 62 20 3d
       -0.01878463 -0.03814704 -0.0029310517 0.03915641
0001a0 c1 64 a1 3c c5 50 a7 3b 85 e1 b5 bb 77 47 7a 3c
       0.019701364 0.005106064 -0.0055505657 0.015275828
0001b0 06 6a 11 bd f5 6e c1 3b 52 da e6 3c d4 44 67 bb
       -0.035501502 0.0059031197 0.028180275 -0.0035288827
0001c0 66 c1 f4 bc 01 01 26 3d dc 2d e9 bc e0 ed 1a bb
       -0.029877376 0.0405283 -0.02846425 -0.002364032
0001d0 4e 1a f7 bc 56 2d f4 bc 2c 86 11 3c be 7b aa 3b
       -0.03016391 -0.029806774 0.008882087 0.0052027395
0001e0 90 67 38 3d b2 2e 28 3c e5 6e 8e 3c 65 e8 90 bb
       0.04502064 0.010265039 0.017386863 -0.004422235
0001f0 c8 f3 13 3d f7 c6 58 bc d4 bc 57 bd 2c e2 bc bc
       0.03612116 -0.013231031 -0.052670315 -0.023057066
000200 4a bb 0d bd ee 60 00 3c 5e ea d6 bc 3c ea e3 3a
       -0.03460244 0.00783561 -0.026234802 0.0017388533
000210 28 d8 08 bd 8a db 98 3c 49 16 41 bc 6e df 68 bd
       -0.033409268 0.018659372 -0.011785098 -0.056853704
000220 05 6b 1d bd 28 42 84 bc 10 44 a4 bb 4a 17 1b bb
       -0.03843214 -0.016144827 -0.0050129965 -0.0023665004
000230 39 28 2a 3d 97 09 09 bd e2 27 56 bb fd 61 b0 bc
       0.041542266 -0.03345641 -0.003267758 -0.0215311
000240 25 57 f8 bc 3e f9 18 bc 51 48 93 3c 2a ab 5f bc
       -0.030314991 -0.009336768 0.01797882 -0.013651649
000250 1e 69 f8 3c 97 96 47 3c ab 44 95 bc b8 b2 06 bc
       0.030323561 0.0121818995 -0.01822122 -0.008221321
000260 42 8a 98 bc 15 a3 08 bd c4 20 c0 bc 63 ef ec 3c
       -0.018620614 -0.033358652 -0.023453124 0.028922742
000270 31 d4 32 3d 8b 5d 05 3d 0b 82 99 3d c7 97 db bb
       0.043659393 0.032559913 0.07495507 -0.006701443
000280 67 82 f0 bc 51 9b 97 39 27 f1 d9 3c af b7 c9 ba
       -0.029359056 0.00028916684 0.026604248 -0.0015389825
000290 66 24 62 bd a6 b2 ec bc 73 ae 82 3b 2a 1f 14 bd
       -0.055210494 -0.02889378 0.003988081 -0.036162533
0002a0 0d be 35 3d 67 0f b5 3b 00 2b 65 3b 86 9d 2c bc
       0.0443707 0.0055255177 0.0034968257 -0.010535603
0002b0 ca 89 fd b9 77 6d d1 3d 4d 00 34 3b 57 6b df 3a
       -0.0004835858 0.10225957 0.0027466 0.001704554
0002c0 90 23 1c 3d 87 dd 1b bd 17 e1 e3 3c 22 95 a8 3c
       0.038119853 -0.03805306 0.027817292 0.020578925
0002d0 84 29 03 bb df e2 a4 bd 56 24 dc 3c 53 52 e3 3c
       -0.002001376 -0.08051085 0.026872795 0.027749216
0002e0 c7 0f c6 bc 4e 1e a2 bd 69 b8 3a bd 27 32 f8 bb
       -0.024177445 -0.079159364 -0.045586023 -0.007574338
0002f0 b6 6b f8 3c 6c db c3 3c 5d 52 e3 bd f3 42 68 bb
       0.030324798 0.02390834 -0.11099694 -0.0035440295
000300 70 dd 48 3b 2f 5e 1e 3d 52 5e be 3c 98 56 8a 3c
       0.0030649565 0.03866404 0.023238335 0.016886994
000310 ea f5 d9 3c 24 49 f0 3b b3 12 76 3d 18 c9 3b 3d
       0.026606519 0.007332938 0.060076427 0.045846075
000320 84 30 dd bc a8 b3 af 3c b4 28 84 bc ae b3 a2 3d
       -0.027000673 0.021447971 -0.01613269 0.079444274
000330 55 6f 25 3d 2b e5 1c bc 28 e6 28 bd 70 49 78 3c
       0.040389378 -0.009576122 -0.04123512 0.015154228
000340 0b fb e4 3b 71 71 bd bc 39 15 0a 3d 7f 27 64 bc
       0.0069879345 -0.023125382 0.033711646 -0.013925432
000350 49 74 18 3c 97 10 ed bb 9a 52 4c 3d 0b a1 3d bc
       0.009305068 -0.0072346437 0.049883462 -0.01157404
000360 de 09 9a bc 67 0e 01 3d a3 a0 3d bc 2a 79 b9 bc
       -0.018803533 0.031507876 -0.011573943 -0.022640783
000370 70 79 61 3c ff 9e 0a 3d bc 9a a8 3b eb 93 e6 3c
       0.013761863 0.033843037 0.005145399 0.028146705
000380 ed ac 1a bc ec d4 3d 3c 01 18 4c 3d 3f 5b 80 3b
       -0.009440643 0.011586409 0.04982758 0.0039171274
000390 5b 60 28 3c 04 c9 b3 3c df 26 65 3c d1 54 fc bc
       0.010276879 0.021946438 0.013986318 -0.030802162
0003a0 a2 41 28 3d cd 4e 41 3c ee 63 5d 3d cd 24 b4 bc
       0.041078217 0.011798573 0.05405038 -0.021990204
0003b0 84 22 03 3c e4 5b 5e 3d 62 c3 17 3b b9 c0 1f bc
       0.008003835 0.054286852 0.0023157229 -0.0097505385
0003c0 14 89 36 3d 84 d6 bd bc ee cd b9 3c 50 79 db 3a
       0.04456432 -0.023173578 0.022681203 0.0016744528
0003d0 c3 c6 69 bc b3 1e 43 bb 3b 68 8b bd 48 c1 ec bc
       -0.01426858 -0.0029772937 -0.0680699 -0.028900757
0003e0 c0 ba b7 3c 47 b9 7d bc 4b d8 15 bd 98 85 50 bc
       0.022427917 -0.015486068 -0.036583226 -0.012727164
0003f0 ab fa b8 3c f0 25 ae 3c a4 e1 33 3c 21 97 4b 3c
       0.022580465 0.021258324 0.01097909 0.012426169

net.4.weight f4 [256, 256]
000000 13 1f cd bc e5 16 8f bb 8e 66 3a bc d4 50 9e 3b
       -0.025039231 -0.004366743 -0.01137699 0.004831413
000010 82 7c aa bb 08 04 46 bc 50 4f cb bb f5 07 40 3c
       -0.005202831 -0.012085922 -0.006204523 0.011720647
000020 c8 11 a9 bb a7 4e bc bb 10 4a c5 3c ef 2c 26 3b
       -0.0051595904 -0.005746681 0.024083167 0.0025356372
000030 a5 28 3c bb 86 4e 9b 3b 24 42 22 3c 18 2e 90 39
       -0.002871075 0.0047395853 0.0099034645 0.00027500163
000040 48 ce 6e 3b 5a 9d 2a 3c 1d e4 08 ba 5f f6 48 bc
       0.0036438871 0.010413492 -0.000522198 -0.012265771
000050 ec 70 b9 ba 8d 4e 9f bb 75 96 86 3c 22 cf 22 bc
       -0.0014148033 -0.004861659 0.016429165 -0.00993708
000060 64 af b4 bb 01 8f 15 3c c3 6d 31 3c 3a b4 dc bb
       -0.0055140723 0.009128333 0.010829392 -0.006735352
000070 04 2e 78 3a da d9 c2 bb 15 e0 49 3b 31 59 42 3c
       0.0009467306 -0.00594638 0.003080373 0.011862085
000080 3a 45 6e 3c 86 04 dd bb 29 5f 8e bb 74 14 05 bc
       0.014542872 -0.006744924 -0.00434484 -0.008122552
000090 6c c1 1d 3b c4 25 13 bc 0e 59 f8 bb 18 6b e8 3a
       0.0024071587 -0.008981172 -0.0075789755 0.0017732112
0000a0 0e 82 de bb 86 cd 81 bc bc 96 9c 3c 62 60 5c bb
       -0.006790406 -0.015845072 0.019114845 -0.0033626785
0000b0 f8 e8 47 3c f0 4e 26 3b 8a a7 fa 3b bf 07 d7 bb
       0.01220154 0.002537664 0.0076493667 -0.0065622027
0000c0 a1 01 18 3b 23 1a bd bb dd 51 a3 3b 02 27 7f 3c
       0.002319433 -0.005770938 0.004984124 0.015573265
0000d0 08 2f 14 bc 31 d2 62 bc 0e 47 03 3c b2 19 45 bc
       -0.009044416 -0.013844059 0.008012546 -0.012030052
0000e0 42 d5 0a bc 18 7b 1a 3b 3e 4f 74 3c 4b 5e 33 bb
       -0.008473696 0.0023571905 0.014911471 -0.0027369435
0000f0 89 19 43 3c ce ea d9 3b 36 74 27 3c e7 5e ab bb
       0.0119079435 0.0066503054 0.010220578 -0.005229819
000100 6b d8 f5 3a a0 a3 65 bc ad 6f 0a bc f8 94 58 3b
       0.0018756514 -0.014016062 -0.008449477 0.0033047777
000110 a9 44 89 3b e1 77 3d bb e7 09 0b 3b e7 64 11 ba
       0.004189093 -0.0028910565 0.002121562 -0.00055463467
000120 ef 42 03 3c 2a a2 67 bb 36 7a 2e 3b d2 88 0f 3c
       0.008011564 -0.003534446 0.0026623136 0.008760648
000130 af 4f 74 bb ab 59 c1 3b b2 98 9d bb da 2d 1c 3c
       -0.003727894 0.005900582 -0.0048094625 0.009532416
000140 57 89 d6 3b 43 99 1f 3c f7 ee 4f bc eb b6 ca 39
       0.006547134 0.00974113 -0.012691251 0.00038664727
000150 41 46 24 bb 7e 09 20 bc 5d 80 6e bb 01 07 d0 3a
       -0.0025066289 -0.009767888 -0.0036392428 0.0015871228
000160 f7 35 04 3b c2 8a 8a 3b b7 28 89 3b 87 55 27 bb
       0.0020173767 0.004227967 0.004185762 -0.0025533156
000170 82 d2 05 3c fd b3 28 bc 00 b5 bb 3b 01 6e 8e bb
       0.008167865 -0.010296819 0.005728364 -0.0043466096
000180 e1 72 ef bb 0a cb dc ba a1 6b fb bb 1e 7c 75 b9
       -0.007307396 -0.0016845178 -0.0076727425 -0.00023411258
000190 bd b9 84 bb 98 1d 48 3c 00 67 2e 3b 75 f7 75 bb
       -0.004050462 0.012214087 0.0026611686 -0.003753153
0001a0 6f b4 88 3b 1d 8d e9 ba 55 80 27 bc 16 7c d1 bb
       0.0041719 -0.0017818544 -0.010223468 -0.006392966
0001b0 fd ed a1 3b 4b 00 43 3c 5c 32 76 3b b6 5e 80 3c
       0.0049417005 0.011901925 0.0037566638 0.015670162
0001c0 66 c7 29 3a 5b 37 1f bc 59 79 4a bc 88 b0 33 bc
       0.0006476551 -0.009717788 -0.012358033 -0.010967381
0001d0 ab b7 4e ba 86 c1 a9 3b 89 03 de 3b 66 8e 54 3c
       -0.0007885645 0.0051805405 0.006775324 0.012973404
0001e0 5b ff 7f bb 42 f1 d5 3a 1a 7a a7 3b 46 5b 0e bc
       -0.0039062116 0.0016322511 0.005110991 -0.0086887535
0001f0 e9 f8 ed ba 52 bf 2d 3b f9 bd 48 bb 02 31 da bb
       -0.0018155846 0.002651174 -0.003063081 -0.006658674
000200 98 74 43 bb 3c 4a 9b bc 6c e5 e0 bb bd 6f d6 3b
       -0.0029824134 -0.018956296 -0.0068632867 0.006544082
000210 d5 ab f9 bb e7 49 29 3c 7b 89 d8 ba d6 5b ca 39
       -0.007619361 0.010332561 -0.0016520465 0.00038596865
000220 75 d9 65 bc 30 ac 3f 3b aa 05 24 bb a7 fe c8 3b
       -0.014028897 0.002924692 -0.002502779 0.0061338725
000230 c5 9e 2f bc fc a9 0e bc ca bc f8 bb f5 36 95 ba
       -0.010719006 -0.00870752 -0.007590865 -0.0011384176
000240 42 b7 c8 3b d0 f3 31 3c ea 7c 94 3c 28 60 46 3b
       0.0061253617 0.010861352 0.01812597 0.0030269716
000250 0e 83 da bb 33 7f 3a bb 82 62 16 3b 42 71 8f ba
       -0.006668455 -0.0028457164 0.0022946899 -0.0010943788
000260 27 98 30 3b 64 bf 42 bc 50 f1 01 bb a1 35 79 3a
       0.0026946159 -0.011886451 -0.0019827671 0.00095065875
000270 98 1b 55 3b 79 37 8e bc 0e dc 87 bc 50 d0 0d 3c
       0.0032517668 -0.017360436 -0.016584422 0.008655623
000280 98 ef ab bc ca 99 ab bb 25 2b 80 bc 0e 78 54 bc
       -0.02098827 -0.005236839 -0.015645573 -0.012968076
000290 db 8e c9 ba ca 25 c2 ba 9f 14 1d bc 81 23 93 bb
       -0.0015377657 -0.0014812287 -0.009587436 -0.0044903164
0002a0 e8 db 1a 3b e7 d7 e6 3b 43 b0 26 3c 83 a6 7a 3b
       0.002362961 0.0070447805 0.01017386 0.0038246221
0002b0 1c 93 54 3c e5 00 f7 3b 4a fb a1 bb f9 98 73 38
       0.012974527 0.0075379484 -0.004943286 5.807818e-05
0002c0 38 a8 da ba 76 80 3e 38 5c 59 26 3c 07 c1 15 bc
       -0.0016682213 4.541917e-05 0.010153141 -0.00914026
0002d0 43 1d 27 bc d2 71 d6 3c f5 dc 0b 3b 4f 34 fc bb
       -0.010199848 0.02617732 0.0021341417 -0.0076966654
0002e0 58 01 d9 bb 78 c9 d7 bb af be 17 38 0a 7a fb 3b
       -0.0066224746 -0.0065852962 3.6178793e-05 0.0076744603
0002f0 34 4a 21 3b 93 d6 73 3a 71 b2 2b bc b8 10 34 bb
       0.002461088 0.00093016884 -0.010479555 -0.0027475785
000300 df dd 0f 3c 98 2a ea 3b c4 5e 94 3b ac 3a 43 3b
       0.008780926 0.007146191 0.0045278985 0.002978961
000310 f5 e0 96 bb 68 de dc ba 0e 00 f6 bb c4 4e 12 bc
       -0.0046044537 -0.001685095 -0.0075073307 -0.008929912
000320 81 9e 0b 3b 2d f2 95 3b 65 6d ec ba c5 dd 68 3c
       0.0021304192 0.0045759887 -0.0018037973 0.01421303
000330 fe f9 1f bc 4b 8e 36 bc be e2 1e 3c 8e a9 aa 3b
       -0.009764193 -0.011142324 0.009697614 0.005208201
000340 ee bc 5c 3b 67 a8 1a 3a e1 f7 7e 3c b5 f0 e2 3a
       0.0033681947 0.00058997277 0.015562029 0.0017314168
000350 bc 61 fd bb a7 cd b2 3b 4b fb a8 ba db c1 30 bb
       -0.007732598 0.0054566446 -0.0012892274 -0.0026971016
000360 e7 58 87 bb 5d bc 39 bb d5 fc 41 3c 72 db 9a ba
       -0.004130471 -0.0028341033 0.011840065 -0.0011814667
000370 84 a9 0b bc d4 2b 72 bb 8f 12 02 bc 64 2c 27 bc
       -0.008524302 -0.0036952393 -0.007938995 -0.010203455
000380 35 8c 42 3c 70 fa 5d 3c 9d b4 1d bc 52 c0 5a bc
       0.011874248 0.0135484785 -0.009625581 -0.013351517
000390 f1 a1 2e 3c 00 15 fc ba 13 41 39 bb 1f 73 5c 3a
       0.010658727 -0.0019232333 -0.0028267547 0.00084094884
0003a0 50 1c ab bb 1c 85 01 3a c4 43 02 bc 6a df d3 bb
       -0.005221881 0.00049407943 -0.007950727 -0.006465842
0003b0 09 bd e2 3a b3 df 37 3b 98 2b c3 bb bf 47 e2 bb
       0.0017298769 0.002805692 -0.0059561245 -0.0069055255
0003c0 90 1a 9b 3c 48 e6 00 ba b9 c8 df bb 85 6d e9 3a
       0.018933564 -0.0004917127 -0.006829348 0.0017809129
0003d0 10 f7 6b 3b d5 93 4b bc c3 8c 4d ba 38 da 6e 3b
       0.0036005415 -0.012425383 -0.00078411045 0.0036445986
0003e0 a3 d6 a2 ba 2a 86 17 ba 72 cf 1a 3b f5 e7 8f bc
       -0.0012423586 -0.0005780185 0.0023622182 -0.01756666
0003f0 87 9a 9a 3a e0 85 ac bb f5 55 48 b9 b2 af 81 bb
       0.001179532 -0.0052649826 -0.00019105508 -0.003957712

net.4.bias f4 [256]
000000 53 81 44 bc 21 fa 7c bc f8 3c 13 be 6b dc 9f 3c
       -0.011993724 -0.015440495 -0.14378726 0.019514283
000010 52 33 0c bd 95 77 55 3c 85 32 80 bb 97 6c fa 3c
       -0.03422863 0.013028999 -0.0039122724 0.030569358
000020 f5 2a e4 3c 0c ce d1 bc 00 19 81 bb cb 01 14 3d
       0.027852515 -0.025610946 -0.003939748 0.036134522
000030 ca b2 d1 bc a4 c4 40 bb 87 93 c0 3c 8d b6 c0 bc
       -0.025597949 -0.0029414082 0.023507847 -0.023524547
000040 00 dd f2 3c 37 82 cb 3c 15 5c 1d 3c 45 59 aa 3c
       0.029646397 0.024842365 0.009604474 0.02079452
000050 bf 3f af bd 93 75 28 3c 3a 6c 4e bd 32 d5 f2 bc
       -0.085570805 0.010281938 -0.05039618 -0.029642675
000060 33 2d 28 3c e2 ab f7 3c 1d 31 13 be 3d 5f 31 b9
       0.010264683 0.030233327 -0.14374204 -0.00016915514
000070 46 a0 0c 3d ec b8 f2 3c 17 c3 27 3d a5 ea b8 3c
       0.034332536 0.029629193 0.040957537 0.022572825
000080 3b fd 85 bc 78 e4 37 3d 3b 23 03 3d 28 03 c7 bc
       -0.016356101 0.04489562 0.03201602 -0.024293497
000090 89 46 88 3c 4a 3a 0d 3d 63 e8 9b bc 0a 61 2a bc
       0.016635196 0.034479417 -0.019031709 -0.0103991125
0000a0 33 90 2a bc a9 5f 4e bc 11 2d 26 3d ba 9f 16 bd
       -0.010410356 -0.012596049 0.040570322 -0.03677342
0000b0 67 d8 8a bb 06 af 59 be d6 06 a4 bc 1a d5 49 bb
       -0.004237223 -0.21258172 -0.02002279 -0.0030797184
0000c0 f5 fa 64 bc 98 ea 38 3a ef 4a 3a bd 88 ad 19 3d
       -0.013975848 0.0007054 -0.04548162 0.037519008
0000d0 8c 8d 6d bc f3 8a 6d 3c 12 1c b0 3c 90 f6 9f 3a
       -0.014499079 0.01449846 0.02149776 0.0012204219
0000e0 93 15 13 3d 4c 22 a9 bd eb f7 cc 3c f4 46 33 b9
       0.035909247 -0.08258495 0.02502056 -0.00017097202
0000f0 fa bd 0f 3d ad ca 2e bb ac b7 cf 3c 13 3e d4 bc
       0.035093285 -0.0026671097 0.025356136 -0.025908506
000100 28 ee e9 3c 9c 2c f8 bb 69 fb a7 3c 01 68 0c 3c
       0.028555945 -0.007573677 0.020505624 0.008569718
000110 c6 81 0b bb 91 8f 7b 3b de 15 28 bd ba 45 0c 3d
       -0.0021287068 0.0038385133 -0.04103648 0.034246184
000120 c5 92 30 bd 31 b5 ad 3b 46 a7 8b bb a0 50 4b 3b
       -0.04310872 0.0053011407 -0.004261884 0.0031023398
000130 03 69 8a 3c 1b f4 ea 3c 11 df 87 3b 10 ad 69 3c
       0.016895777 0.028680852 0.0041464646 0.014262453
000140 15 1d 60 3c 3c ce c6 bd 12 2e e4 3c 71 45 e4 3b
       0.013678809 -0.09707305 0.027854 0.006966286
000150 ac 95 e6 3c dc 0f a9 3c 71 41 2b be a4 29 cb 3c
       0.028147541 0.020637445 -0.16724183 0.02480013
000160 c5 12 a1 3c 4b f8 6a be a6 83 bf 3c bc 8b 8b 3c
       0.01966227 -0.22946279 0.023378205 0.017034404
000170 0b 3f e7 3b 19 2f 88 bc eb ec a0 3c b1 32 2c 3d
       0.007057076 -0.01662402 0.019644221 0.04204053
000180 b8 f1 09 bd d3 bd 89 3c e3 1e 01 bc b6 70 2c be
       -0.033677787 0.016814148 -0.007880899 -0.16839871
000190 6d 87 d6 bd 5e b4 3e 3c 5f 72 1f bd 25 7c 94 3c
       -0.10475049 0.011639683 -0.038927432 0.018125603
0001a0 7a 6c b6 3c 8a e3 0b 3d 12 b4 00 3d b3 22 97 3c
       0.022268523 0.034152545 0.03142173 0.018449163
0001b0 8a bd 0e 3c f1 dd f9 3b 75 c9 76 bd 19 ea 42 bc
       0.008712182 0.0076253344 -0.06025072 -0.011896634
0001c0 e3 53 0a 3d 1d a6 4a bc e5 b5 c0 3c 3f 6d b9 bd
       0.033771407 -0.012368706 0.023524234 -0.0905404
0001d0 25 09 3f bc 32 38 00 3d 5d 0a 99 bb d8 05 05 3d
       -0.011659895 0.031303592 -0.004670425 0.032476276
0001e0 b1 7c 11 bd 1b 23 73 bd 69 5b ee bd 04 e8 29 bc
       -0.035519306 -0.05935965 -0.11638529 -0.010370258
0001f0 ba 0b c9 3a 43 f2 2b 3d ed e9 82 bc 96 13 55 bd
       0.0015338578 0.041979086 -0.015980685 -0.05202063
000200 5d 95 ad 3c d2 fd b1 3c 12 f8 d9 bc d5 4c c2 bd
       0.021189386 0.021727476 -0.026607547 -0.09487311
000210 de b0 a9 3b e0 37 45 3c 02 7e b0 bb 51 49 43 3d
       0.005178555 0.012037247 -0.005386115 0.04767734
000220 04 b3 18 bc 4c 18 a0 3c f2 01 36 3d 9a a8 b5 3c
       -0.009320024 0.019542836 0.04443545 0.022175122
000230 be 9b a0 bb 9d e2 93 bd 4a 84 81 3c 2c 52 1b bc
       -0.0049013784 -0.072209574 0.01581015 -0.0094800405
000240 cd f9 52 3c 33 37 fe bd 55 09 7f bc 37 41 3b 3d
       0.01287694 -0.12412872 -0.01556619 0.04571649
000250 3d 99 17 bb db 4c c9 bb 2b 80 52 3c 2c e7 1e 3d
       -0.0023132109 -0.006143195 0.01284794 0.03879468
000260 cc 0e 30 3d 94 f5 0d be bd 3f 9d bd 50 07 23 3d
       0.04298286 -0.13863212 -0.07678173 0.039801896
000270 af c6 b7 3c d0 2b 91 3c aa 79 8a 3c 22 fb 15 3d
       0.022433607 0.017721087 0.016903717 0.036616452
000280 15 aa b0 3c 4c c0 70 3c 38 1d b8 3c c4 1f cf 3c
       0.021565476 0.014694285 0.02247487 0.025283702
000290 bf 09 b7 3c c3 47 1b 3d 00 10 ad 3c 46 fb bb 3b
       0.022343514 0.037910234 0.021125793 0.0057367412
0002a0 3b f3 56 3b 60 38 24 bc 53 bf 37 bd 11 ce 0e bd
       0.0032798785 -0.0100232065 -0.044860195 -0.03486449
0002b0 4d b0 a2 bc 6f 82 cb 3a ab 3e ba bb 41 84 66 ba
       -0.019859457 0.0015526543 -0.00568374 -0.0008793511
0002c0 80 a0 bb 3c 7b 81 07 3d 7f 0d 08 be 35 fe df bb
       0.02290368 0.033082467 -0.13286398 -0.0068357238
0002d0 10 2f de 3c 8e dd 4b bc 42 41 4c 3c 8f 07 e4 3c
       0.02712205 -0.0124429595 0.012466731 0.027835635
0002e0 b1 d0 cc 3b 49 b2 cf 3c ba cd ef 3c 1d ad d9 bb
       0.006250464 0.025353568 0.029272903 -0.006642951
0002f0 55 b9 a8 3c 66 82 a0 3b 05 f1 89 bc b2 cf d5 3c
       0.020596186 0.004898357 -0.01683856 0.026100013
000300 17 26 fa bc a9 35 b8 3c 68 19 6c bd 8d d1 20 3d
       -0.03053574 0.022486525 -0.057641417 0.039262343
000310 14 13 30 be bf 55 aa 3c 4c 01 a8 bc a2 e2 fd 3c
       -0.17194778 0.02079284 -0.02050843 0.030991856
000320 51 50 06 bd ba ff 9e bb fe bc 3f bc d6 df cb 3b
       -0.03279144 -0.0048522623 -0.011702774 0.0062217517
000330 19 e1 8e bc 61 80 32 bc d4 4d 4c bc d2 f1 b7 3c
       -0.01744132 -0.010894866 -0.012469728 0.022454176
000340 7d aa 05 3d 64 15 f2 bb ab ec 5b 3d fe b5 e8 3c
       0.032633293 -0.007387804 0.0536925 0.028407093
000350 6d c6 6e bc 75 61 20 be 09 93 2d bc 81 e5 1d bb
       -0.014573676 -0.15662177 -0.010594138 -0.0024093094
000360 69 07 24 3d 97 d2 2b 3c 81 19 33 bd 6d 3b ac bd
       0.04004613 0.01048722 -0.043725494 -0.08409772
000370 23 85 56 3c cd 28 68 be f9 d7 eb 3c d3 38 23 bc
       0.013093266 -0.22671814 0.028789507 -0.009962278
000380 bb 79 03 3c ad 2a 1c 3c 08 62 7d bc 1f a5 f0 bc
       0.008024628 0.009531659 -0.015465267 -0.02937561
000390 f7 2e 89 bb 79 60 7a bc 56 9e a4 bd e9 c5 70 ba
       -0.004186507 -0.01528179 -0.08038013 -0.00091847643
0003a0 11 41 a6 3c 5a c4 0c 3d a2 1a 87 bd 2a a1 a6 3c
       0.020294698 0.034366943 -0.06596877 0.02034052
0003b0 b0 1c 90 bb 75 d2 f3 bb a2 20 f6 3c 6a 1b 03 be
       -0.004397951 -0.00744086 0.030044857 -0.12803426
0003c0 60 9c 84 bc 96 bc 55 3c 35 5d 1e 3d be e0 e0 bb
       -0.016187847 0.013045451 0.038663108 -0.006862729
0003d0 96 ae ba bc ab c7 10 3d 0f 41 6e bb 04 d7 dc 3c
       -0.022788327 0.03534667 -0.0036354696 0.026957996
0003e0 b4 67 88 bc 6b 75 ce 3c 7d 73 61 bd 1b ac 01 3d
       -0.016651012 0.025202474 -0.05504178 0.031658273
0003f0 fe a7 ec 3c 2b 48 4f 3d 0f 2d 76 bc ae 7e d8 bb
       0.028888699 0.050605934 -0.015025391 -0.0066068983

net.6.weight f4 [2, 256]
000000 13 40 32 b8 21 2f ac b9 22 55 66 3d a9 8c 7a bd
       -4.249818e-05 -0.0003284151 0.056233533 -0.0611693
000010 11 f0 a4 ba f5 f2 4d b9 8a 07 bb 38 3e 5e 02 39
       -0.0012583752 -0.00019640832 8.918259e-05 0.00012432874
000020 0f e2 a0 3c e3 7f c6 38 92 47 d6 3c d2 70 11 ba
       0.019639043 9.4651965e-05 0.026157174 -0.00055481226
000030 c8 5b 43 ba 3e 92 0f 3a 16 71 89 39 c9 4b b6 b9
       -0.0007452336 0.0005476809 0.00026214932 -0.0003477021
000040 87 c3 9d bc 57 8e a4 3d d4 65 67 35 f5 00 2d b9
       -0.019258274 0.08034962 8.6202385e-07 -0.00016498922
000050 0b f0 59 3d 7e 91 c0 bc e0 c9 80 b8 e1 91 80 3c
       0.05320744 -0.023506876 -6.141118e-05 0.01569456
000060 4c 52 7e b9 77 33 12 ba d6 b2 ca bc d0 8f 4f ba
       -0.00024253986 -0.0005577127 -0.024743479 -0.0007917853
000070 1b 0a 7d b9 b7 c9 a8 38 2e ed 93 b9 ae e7 b6 3c
       -0.00024131725 8.0484366e-05 -0.00028214738 0.02232727
000080 09 ba a3 37 6d 39 8a bd 7b 5a 1f bd e8 25 00 bd
       1.9517744e-05 -0.06749234 -0.03890465 -0.03128615
000090 a4 bd 75 b9 54 0e d1 b9 ce 92 e7 38 92 9a 82 39
       -0.00023435667 -0.00039874262 0.00011042283 0.00024910696
0000a0 48 4e 0a bd cd 5f ee 39 59 c6 72 3a af b6 94 bd
       -0.03376606 0.00045466275 0.00092611235 -0.07261407
0000b0 f1 57 a3 39 3d 56 bc 3c 9e 2f d2 39 e1 bc 05 bd
       0.00031155304 0.02299034 0.000400898 -0.032650832
0000c0 5a 40 22 36 69 3d ae 3c b6 8a 48 3d ef 6c de b9
       2.4177339e-06 0.021269517 0.04896041 -0.00042424302
0000d0 4d 48 9a 38 59 db fe 37 60 ed 20 39 36 5e e2 39
       7.356759e-05 3.0381301e-05 0.00015347218 0.00043176272
0000e0 bb 08 88 b9 22 1f a3 bc ea 6a 2a b7 b1 a3 00 bc
       -0.00025946446 -0.019912306 -1.01576825e-05 -0.007851527
0000f0 43 b1 e6 b9 c8 14 b8 39 3d e8 49 bc dd 5d 23 39
       -0.0004400109 0.00035110698 -0.012323436 0.00015579858
000100 6d 72 bc b9 91 28 44 3a 13 15 8b b8 4a 72 b9 b9
       -0.00035943408 0.00074828515 -6.631962e-05 -0.00035371102
000110 92 9c 12 38 7b e1 b2 39 ab e3 91 3d 1e 57 72 bc
       3.495493e-05 0.00034118802 0.07123502 -0.014791278
000120 cf be 4f 3b 40 34 6f b9 40 ec 9b 38 46 27 05 3a
       0.0031699424 -0.00022812281 7.434981e-05 0.00050793996
000130 ad 46 45 b9 ca 78 cb bb 09 93 8b 3c 0a c7 e9 38
       -0.00018813713 -0.0062094675 0.017037885 0.0001114738
000140 4c 5e 69 38 d6 6d 95 3c b5 af 06 36 aa 50 27 3a
       5.563935e-05 0.01824085 2.006983e-06 0.00063825643
000150 80 86 76 39 b4 6e 30 39 60 fb 8d bd c6 8a af b8
       0.00023510493 0.00016825908 -0.069327116 -8.370499e-05
000160 a1 9c 3a b8 d7 67 c4 3c 42 d9 68 3a db 80 2f bc
       -4.4491728e-05 0.023975296 0.00088824716 -0.010711874
000170 a8 77 90 39 b7 1f 05 39 23 26 b2 39 b3 05 7e 39
       0.0002755497 0.00012695683 0.0003397922 0.00024225451
000180 40 de 14 ba 98 da 43 39 86 36 0d 39 3a 74 59 bd
       -0.000567887 0.00018678082 0.0001346712 -0.053089358
000190 88 61 37 3c ce 47 a3 b9 22 f6 99 b8 e1 18 fe 39
       0.011192687 -0.0003114328 -7.341454e-05 0.00048465192
0001a0 c8 5d f3 38 58 18 f4 b8 84 f5 66 3c 12 a7 19 39
       0.00011604611 -0.00011639361 0.014096621 0.00014653456
0001b0 56 2e 87 38 75 1a e5 b8 99 da 8e 3c b7 fa e0 38
       6.4459324e-05 -0.00010924499 0.01743822 0.000107278516
0001c0 55 fd 48 bd 76 dd 0c ba 92 dd 9f 3d 35 30 9c bc
       -0.04906972 -0.00053735764 0.07805933 -0.019065956
0001d0 23 fb d9 39 93 88 8d 39 d6 35 8b b9 a8 e2 c0 b8
       0.00041576577 0.0002699537 -0.00026552257 -9.1974915e-05
0001e0 96 66 52 b9 a4 e2 b6 3c 50 b0 07 3d 9e 0f 9f 38
       -0.00020065377 0.022324868 0.03312713 7.58462e-05
0001f0 05 ca be 39 6a 25 78 3c 57 07 dc 3b a4 87 7b bd
       0.0003639014 0.015145639 0.006714742 -0.061408654
000200 68 0c f5 b9 90 df 41 3d 6d 00 43 bd 3c 34 84 3d
       -0.00046739285 0.047332346 -0.047607828 0.064552754
000210 cb 7f 43 3a 3f 81 5a 3d 00 c7 92 3d 74 8e 0e 3c
       0.00074577023 0.053345915 0.071668625 0.008700956
000220 80 6d 02 bd b7 c8 4e 3d 92 d1 86 b8 e2 29 d0 38
       -0.03184271 0.050484385 -6.4286534e-05 9.926014e-05
000230 9a 02 83 b8 f1 12 68 bd cf cc 9a b9 3f 65 c1 39
       -6.247051e-05 -0.05665869 -0.00029525763 0.00036887263
000240 73 34 1e 3c 31 f7 07 bd 00 34 bd b7 ab fc c5 36
       0.00965606 -0.033194724 -2.255477e-05 5.900472e-06
000250 89 a9 4b 3d f4 85 c4 38 35 55 7c b6 e6 4c a0 bc
       0.04972223 9.370959e-05 -3.7600523e-06 -0.019567918
000260 4f af e5 b4 4d 20 0d bc 6b d7 94 3c ab b3 71 b9
       -4.2782128e-07 -0.008613658 0.018169126 -0.00023050483
000270 b8 cb 14 b9 e2 73 4f 39 ed 76 3e b8 35 af 13 b8
       -0.00014190271 0.00019784228 -4.541029e-05 -3.5210705e-05
000280 67 23 42 3a 9a 6c fe b9 e9 4f 65 b9 ee f5 16 b9
       0.0007405788 -0.0004852757 -0.0002186891 -0.0001439673
000290 13 35 a1 38 21 c8 47 bc 47 9a ac 39 77 36 a5 b9
       7.686964e-05 -0.012193711 0.00032921342 -0.00031511832
0002a0 ca 7e d5 38 ff e0 a1 b6 0a 2f ac bc 84 86 45 39
       0.00010180248 -4.824367e-06 -0.021018524 0.00018837495
0002b0 dd 19 1a 3a 44 e3 57 bc 72 16 b4 39 a9 b1 ce b9
       0.0005878488 -0.013176743 0.00034348998 -0.0003942375
0002c0 74 b6 34 ba 09 0f 88 3d 80 41 68 3d b0 63 97 39
       -0.0006893643 0.06643493 0.05670309 0.00028875237
0002d0 d2 eb 9c 3c 0f ea 59 38 c1 84 10 39 e1 b1 14 3a
       0.019155417 5.1954816e-05 0.00013782365 0.0005672258
0002e0 91 0b 15 bd 32 dd a0 38 a1 36 28 38 48 39 ba 38
       -0.036387984 7.6705954e-05 4.01052e-05 8.8798406e-05
0002f0 42 49 d4 bc 61 64 ba 39 1e 5c f7 3a 00 99 52 39
       -0.025913838 0.00035551473 0.0018872058 0.00020084158
000300 62 c7 ef b8 b0 79 15 3a d6 e1 30 3d e7 88 fe 39
       -0.00011433546 0.0005702032 0.043184124 0.00048548655
000310 b8 36 90 bc 2a 32 d7 39 b0 21 c9 b9 e1 21 8a 39
       -0.017604217 0.0004104537 -0.00038362807 0.00026346653
000320 62 5f 95 b8 46 07 9b 39 a5 15 c3 3a 54 87 cf 39
       -7.12264e-05 0.00029569323 0.001488377 0.00039582944
000330 ce 31 fc 37 3f 04 36 b9 90 89 89 b9 e3 28 90 b8
       3.0063933e-05 -0.00017358454 -0.00026233168 -6.874071e-05
000340 59 b0 d7 38 dc 05 32 3a 04 70 40 3b 73 2b 4a 3a
       0.00010284846 0.0006791034 0.0029363642 0.0007712163
000350 fb eb 43 39 15 6c 27 3d 52 8d 08 ba ed 02 09 3d
       0.00018684559 0.04087456 -0.00052090466 0.033450056
000360 46 a3 33 39 71 c1 29 39 6f 98 38 3c b4 d1 15 bd
       0.00017131594 0.00016189158 0.011266812 -0.03657694
000370 54 04 8b b9 c1 0e 84 3a f8 65 2f 3a c5 01 cf 39
       -0.0002651537 0.0010075198 0.0006690915 0.00039483435
000380 d1 c9 3c 38 98 03 9e 39 29 07 c6 39 7d 5e cd 3a
       4.501065e-05 0.00030138786 0.00037770838 0.0015668418
000390 6d e1 0b bd 3d a9 98 39 d1 c6 14 bd 26 8d 4e b9
       -0.03415053 0.00029117792 -0.03632242 -0.00019698273
0003a0 1e 8e 17 39 f0 9b ea 38 1a 89 a3 bc 52 7f 24 b9
       0.00014453425 0.00011187035 -0.019962836 -0.0001568769
0003b0 3a 14 56 39 6a 8d 78 b9 23 0e e5 b8 77 79 05 3d
       0.00020416165 -0.00023703804 -0.00010922204 0.03258654
0003c0 ba ae 31 bd 0f 0e f4 b9 45 a5 9c 39 e3 09 07 38
       -0.043379523 -0.0004654978 0.00029877774 3.2195716e-05
0003d0 ee 51 4a bc 76 51 8f 39 61 4a f7 b9 96 62 b4 39
       -0.012348635 0.0002733578 -0.00047166928 0.00034405728
0003e0 3a 9b 19 3a 10 2d 9a b7 c3 6a c2 3c 5e d6 98 bd
       0.00058596174 -1.8379214e-05 0.023732549 -0.07462762
0003f0 0f a0 17 b9 de 6b 8e 3c 50 6f 2d b9 60 ac fd 38
       -0.00014460109 0.01738542 -0.00016540033 0.000120960874

net.6.bias f4 [2]
000000 0f 63 e4 3a fb 51 1b 3c
       0.0017424541 0.009479995
